Discriminator.pth (torch, 739085 bytes, 45 tensors)

model.0.0.weight f4 [16, 1, 3, 3]
0	0x3eb6f62c	0.3573469
1	0x3e49b2a1	0.19697048
2	0x3de40b05	0.11134914
3	0xbe110c38	-0.14164817
4	0xbd932dba	-0.07186456
5	0x3ea78c3d	0.3272418
6	0x3da80b72	0.08205308
7	0x3e401321	0.18757297
8	0xbdcda73c	-0.10041663
9	0x3e846369	0.25857094
10	0x3e9ab0c2	0.3021298
11	0xbe030429	-0.12794556
12	0xbc669d74	-0.014075626
13	0x3d21f7b8	0.039542884
14	0x3e1b4c52	0.15165833
15	0xbde9dfd8	-0.11419648
16	0xbe3ec9db	-0.18631689
17	0xbdcc0e2f	-0.09963643
18	0xbe1d6e3e	-0.15374085
19	0x3dd947e5	0.10609416
20	0x3e48d66f	0.1961305
21	0x3e1e4a52	0.15458038
22	0xbeaead0c	-0.341164
23	0x3c3b2e62	0.011424633
24	0x3e0f0a60	0.13968801
25	0xbe4f5511	-0.20247294
26	0x3dc497a3	0.09599235
27	0xbc88f09f	-0.0167163
28	0xbea29391	-0.3175321
29	0x3dba509b	0.090974055
30	0x3e9964ac	0.2995962
31	0x3d25fc05	0.040523548
32	0xbdd0a350	-0.101873994
33	0x3e7829fb	0.24234764
34	0xbd089b24	-0.03335108
35	0xbdb483e9	-0.08814222
36	0x3d9d8b6c	0.07692608
37	0xbe0756e8	-0.13216746
38	0xbd5ba7ea	-0.053626932
39	0xbe479be9	-0.19493069
40	0x3e443d9a	0.19164124
41	0xbc2488e1	-0.0100424
42	0xbe214146	-0.15747556
43	0x3d9e0258	0.07715291
44	0x3e4e4e83	0.20147137
45	0x3ddb7605	0.1071587
46	0x3e5c6178	0.21521556
47	0x3ea009d6	0.31257504
48	0x3c16cd5c	0.009204235
49	0xbe5e2ca5	-0.21696718
50	0xbe0b9875	-0.13632376
51	0x3d548cf1	0.051892225
52	0xbc93fc56	-0.01806466
53	0xbe812363	-0.2522231
54	0xbe238c0e	-0.15971395
55	0xbe841434	-0.25796664
56	0x3ea56a4e	0.32307667
57	0xbdb083bc	-0.08618876
58	0xbd671dae	-0.05642479
59	0x3ea372fc	0.31923664
60	0xbe3886d3	-0.18020181
61	0x3de246e7	0.1104868
62	0xb92de712	-0.00016584646
63	0xbe0a2735	-0.13491519
64	0xbd9878d8	-0.07444924
65	0x3e435c41	0.19078161
66	0xbe0182a7	-0.12647496
67	0xbe166a98	-0.146891
68	0xbd11cdf9	-0.03559682
69	0xbe57371b	-0.21017115
70	0xbe21bcb4	-0.15794641
71	0x3dd891d1	0.10574687
72	0x3c45a772	0.012063848
73	0xbd41f1e7	-0.047349837
74	0x3e5a9923	0.2134748
75	0x3dfa0fbe	0.12210034
76	0x3eb439a2	0.3520022
77	0x3d2732c2	0.04081989
78	0xbe9ef984	-0.3104974
79	0xbe8c1653	-0.27360782
80	0xbdcaade9	-0.09896452
81	0xbe32ab8b	-0.17448251
82	0x3d7f1643	0.06227709
83	0xbde023e8	-0.109443486
84	0xbe0d4c89	-0.13798727
85	0xbdaf4951	-0.08558906
86	0x3e6d8057	0.23193489
87	0x3e1c0684	0.1523686
88	0xbd38c20f	-0.045106944
89	0xbe9774c4	-0.29581273
90	0xbd24c514	-0.04022701
91	0x3ebc3c59	0.36764792
92	0xbe6ef60e	-0.2333605
93	0xbe44c0bc	-0.19214147
94	0x3df63f98	0.12023848
95	0x3d8562ad	0.065129615
96	0xbe54429f	-0.20728539
97	0x3eb28bdb	0.34872326
98	0xbe345fd7	-0.17614685
99	0xbd88404a	-0.06652887
100	0x3e814a41	0.25251964
101	0xbe939c42	-0.28830153
102	0xbd5f6e04	-0.05454828
103	0x3e0053c9	0.12531962
104	0x3e1976d2	0.14986733
105	0xbe45d1cf	-0.19318317
106	0x3da755c8	0.08170658
107	0xbc936a5b	-0.01799505
108	0xbe183a7d	-0.14866062
109	0x3e3941ea	0.1809155
110	0x3e1c92e0	0.15290403
111	0xbcf0e268	-0.029404834
112	0xbe6fe7be	-0.23428246
113	0x3e3f3afb	0.18674843
114	0x3e53be3d	0.20678039
115	0x3e2f090c	0.17093295
116	0x3e5b3838	0.21408165
117	0xbe8f485d	-0.27984896
118	0x3e156d5b	0.14592497
119	0xbe4bca2d	-0.19901343
120	0xbd02bf96	-0.03192099
121	0x3ebd6c8a	0.3699687
122	0xbe714cc5	-0.23564442
123	0x3d98d2ae	0.07462059
124	0xbe524c99	-0.20537032
125	0x3e4af26f	0.19819044
126	0x3ea135eb	0.3148645
127	0xbe361867	-0.17782746
128	0x3e817028	0.2528088
129	0xbe0ed0d8	-0.13946855
130	0xbe88b05b	-0.2669705
131	0x3e8f0ade	0.27937979
132	0xbe7303ad	-0.23731871
133	0xbd2d4cf6	-0.042309724
134	0xbe366044	-0.1781016
135	0x3e7b7a0b	0.24558274
136	0x3e83fba2	0.25777918
137	0x3d14c427	0.036319878
138	0x3d226c22	0.039653905
139	0xbe00dbe6	-0.12583885
140	0xbe2ee71e	-0.17080352
141	0xbe724d42	-0.23662284
142	0xbe9cc45f	-0.3061857
143	0x3db73267	0.0894516

model.0.0.bias f4 [16]
0	0xbde9a75b	-0.11408874
1	0xbe8c148a	-0.2735942
2	0xbe2f236a	-0.17103353
3	0x3e869d3f	0.26291844
4	0x3eb5e94c	0.35529554
5	0x3cc7260c	0.024310134
6	0xbe3a5cac	-0.18199414
7	0x3e8e1a7a	0.27754575
8	0xbe4f96fd	-0.20272441
9	0xbe87065c	-0.2637204
10	0xbc5097c0	-0.0127314925
11	0x3dea88f2	0.114519015
12	0xbe91367e	-0.28361887
13	0xbe13f2e7	-0.14448129
14	0x3e9e53a7	0.30923197
15	0xbe039676	-0.12850365

model.0.2.weight f4 [16]
0	0x3f6a212b	0.9145686
1	0x3f72ccae	0.94843566
2	0x3fa90bf1	1.3206769
3	0x3f66be85	0.9013446
4	0x3f7694c8	0.9632077
5	0x3f72ae4f	0.94797224
6	0x3f893471	1.0719129
7	0x3f6c9454	0.9241383
8	0x3f8e99c3	1.1140674
9	0x3f7df86d	0.9920719
10	0x3f7f49d2	0.99722016
11	0x3f8772e6	1.0581939
12	0x3f5b867b	0.85752076
13	0x3f6fa352	0.9360858
14	0x3f714210	0.9424143
15	0x3f707580	0.9392929

model.0.2.bias f4 [16]
0	0x3d33fa87	0.043940093
1	0x3c8fa4e2	0.017534677
2	0xbde8f291	-0.11374391
3	0x3e040fc8	0.12896645
4	0x3d3741ce	0.04474049
5	0x3da8d010	0.0824281
6	0x3d8c4e76	0.06850903
7	0xbd92005a	-0.07128973
8	0x3d108112	0.03527934
9	0xbdf84d02	-0.12124063
10	0xbdb6e050	-0.08929503
11	0xbd997982	-0.07493879
12	0x3d074131	0.033021156
13	0xbcb1242d	-0.021623695
14	0xbd0c3c31	-0.03423709
15	0xbe03532a	-0.12824693

model.0.2.running_mean f4 [16]
0	0x3bffbf90	0.0078048185
1	0xbd558c79	-0.05213592
2	0xbd0bd602	-0.03413964
3	0x3e8a1861	0.26971725
4	0x3eb5d719	0.3551567
5	0x3cecdfc5	0.028915295
6	0xbd146f26	-0.036238812
7	0x3e790520	0.24318361
8	0xbd24cd49	-0.040234838
9	0xbd6c42ca	-0.057680883
10	0xba609230	-0.00085667055
11	0x3de95d0f	0.11394703
12	0xbd39312a	-0.045212902
13	0xbcfd18af	-0.03089556
14	0x3e983d46	0.29734248
15	0xbce3cf14	-0.027808703

model.0.2.running_var f4 [16]
0	0x3c033cc0	0.008010089
1	0x380617f9	3.1970416e-05
2	0x35a77959	1.2477786e-06
3	0x3995d862	0.00028580712
4	0x385dfeed	5.2927924e-05
5	0x398666ad	0.0002563497
6	0x37024629	7.764939e-06
7	0x3b71eec1	0.003691599
8	0x37149540	8.856237e-06
9	0x38b954d8	8.837291e-05
10	0x38356eb1	4.3256852e-05
11	0x37d3af01	2.5234653e-05
12	0x3a9c6e5f	0.0011934749
13	0x378c6543	1.6736454e-05
14	0x3a45bd3b	0.0007543151
15	0x37e0cbd6	2.67978e-05

model.1.0.weight f4 [16, 16, 3, 3]
0	0xbd89c46d	-0.06726918
1	0x3d0bbe53	0.034117054
2	0x3dbdfc52	0.09276642
3	0x3dc2b416	0.09507005
4	0xbd43981b	-0.04775248
5	0x3b5ca43e	0.0033667232
6	0x3d9a3da8	0.07531291
7	0x3cbfca29	0.023411827
8	0xbd7b34cb	-0.061329644
9	0xbd164112	-0.03668315
10	0xbc9a72c7	-0.018853558
11	0x3cce2185	0.025162468
12	0x3da8c54a	0.08240755
13	0xbd1ae2f2	-0.03781409
14	0xbdad244d	-0.084541894
15	0xbc8a6a42	-0.01689637
16	0x3ae2778b	0.0017278058
17	0x3daf898c	0.08571157
18	0xbd72171c	-0.05910407
19	0xbd1181af	-0.035524067
20	0xbcf1ff86	-0.029540788
21	0xbd7edd15	-0.06222256
22	0xbccdb246	-0.025109421
23	0xbcf826c8	-0.03029193
24	0x3e316469	0.1732346
25	0x3d38902d	0.04505937
26	0xbd5d93cd	-0.054096032
27	0xbd2de1d0	-0.04245168
28	0x3d88681b	0.066604815
29	0xbc675c17	-0.014121077
30	0x3d6b35bf	0.057424303
31	0x3d707e2c	0.058714077
32	0xbd61d4b8	-0.055134505
33	0x3d75cdb1	0.060010616
34	0xbdc59cd4	-0.09649053
35	0xbc60d9b8	-0.013723783
36	0x3cdce0de	0.026962694
37	0xbd4cc108	-0.049988776
38	0x3c5f9c56	0.013648113
39	0x3d22d988	0.039758235
40	0x3d3c8a3b	0.046030264
41	0xbc47a5e5	-0.012185548
42	0xbbbb24ce	-0.0057111746
43	0xbd0e2c99	-0.0347105
44	0x3d422612	0.047399588
45	0xbdb18a53	-0.086689614
46	0x3d42b7d9	0.047538612
47	0xbd9299b8	-0.07158226
48	0xbd5f5e97	-0.054533567
49	0xba85d637	-0.0010210936
50	0xbd07b7ba	-0.0331342
51	0x3ce8a2a8	0.028397873
52	0x3ddec131	0.10876692
53	0xbc6aa05e	-0.014320461
54	0xbd08a226	-0.03335776
55	0xbd29f2ca	-0.041491307
56	0xbb7036fb	-0.0036653865
57	0x3c751c54	0.014960367
58	0x3c88de70	0.016707629
59	0xbcafeaff	-0.02147436
60	0x3d14f897	0.036369886
61	0xbd654fcb	-0.0559843
62	0xbdbe92b7	-0.093053274
63	0xbabc2a10	-0.0014355797
64	0xbb88a885	-0.0041704797
65	0xbc93296c	-0.017964087
66	0xbca3b493	-0.019983565
67	0xbcbf159b	-0.023325732
68	0xbd1c1b1e	-0.0381118
69	0xbce102e0	-0.027467191
70	0x3d30345c	0.043018684
71	0x3d16ebd0	0.036845982
72	0x3d3bf8eb	0.045891684
73	0xbdcfb04b	-0.10141047
74	0xbd9fd036	-0.07803385
75	0xbd4064f3	-0.046971273
76	0x3e0ace67	0.13555299
77	0xbbd5a96d	-0.0065204413
78	0xbba955cb	-0.005167698
79	0xbd5a5970	-0.05330795
80	0x3d3fc7b7	0.046821322
81	0x3cbc5a85	0.022992382
82	0xba8feda7	-0.001098086
83	0x3dbe7405	0.09299473
84	0xbd0cec2d	-0.034404922
85	0x3d9219c1	0.071338184
86	0xbd8b3dca	-0.06798895
87	0x3d5fe807	0.054664638
88	0x3dc93710	0.098249555
89	0xbd045bd4	-0.032314137
90	0xbdee3237	-0.116306715
91	0xbe0a4987	-0.13504611
92	0x3d66cd9e	0.056348436
93	0x3d541a61	0.05178297
94	0xbdd75265	-0.105137624
95	0xbced78f7	-0.028988345
96	0xbcd11491	-0.025522502
97	0x3d4aef01	0.049544338
98	0x3d0f287f	0.03495073
99	0x3d82af8e	0.06381141
100	0x3a082939	0.0005194131
101	0x3d5ac420	0.053409696
102	0x3c9b7fff	0.018981932
103	0xbc0c85e1	-0.008576841
104	0x3dc025a2	0.09382178
105	0xbd7e91a8	-0.062150627
106	0x3e1f5bd1	0.15562369
107	0x3cf46fdc	0.029838495
108	0x3d708698	0.05872211
109	0x3dc69c70	0.09697807
110	0x3d8b146b	0.06791004
111	0x3c00a279	0.0078512365
112	0x3ca4afd9	0.020103382
113	0xbc4b624f	-0.012413575
114	0x3db8ea62	0.0902908
115	0x3ca44717	0.02005343
116	0x3c7219f2	0.014776694
117	0xbcf85d02	-0.030317787
118	0xbdaebe24	-0.0853236
119	0x3d278765	0.040900607
120	0xbda6129c	-0.08109018
121	0x3cc152f0	0.023599118
122	0xbcc00cea	-0.023443658
123	0xbcfa69da	-0.030568052
124	0x3d92ca96	0.071675465
125	0x3d42a994	0.047525004
126	0xbdc6af2c	-0.0970138
127	0x3d741752	0.059592552
128	0xbd3f7320	-0.04674065
129	0xbd3ae4b7	-0.045628276
130	0xbd894933	-0.06703415
131	0xbca140a3	-0.019684142
132	0x3d0dccc2	0.0346191
133	0xbcf9d4a1	-0.030496897
134	0x3d6418db	0.055687767
135	0xbc7ae43e	-0.015313206
136	0x3d7c4995	0.06159361
137	0xbc467414	-0.012112636
138	0x3d4c8f9b	0.04994164
139	0x3dbfbd55	0.09362284
140	0x3d51a5c4	0.051183477
141	0x3c4f79c7	0.012663311
142	0x3cd116bc	0.025523536
143	0x3cfc61a5	0.03080828
144	0xbc78ea36	-0.015192559
145	0xbd5d96d8	-0.054098934
146	0x3d99fdf2	0.07519139
147	0xbc7e7040	-0.015529692
148	0xbccd388b	-0.025051376
149	0xbd253a91	-0.040339056
150	0xbdad12a2	-0.084508196
151	0xbd0f2eb1	-0.034956638
152	0x3c76c448	0.0150614455
153	0xbd8c82c1	-0.06860877
154	0x3d4ae119	0.049531076
155	0x3d25ae59	0.040449474
156	0x3d366d39	0.044537757
157	0x3d7cb7c0	0.061698675
158	0x3ca04b68	0.019567207
159	0xbdd65738	-0.104658544
160	0xbc0fd1ea	-0.008778075
161	0x3d07bf6a	0.03314153
162	0x3c4ead92	0.012614625
163	0xbd6d0ca3	-0.05787338
164	0xbdd7e41d	-0.10541556
165	0x3c503c69	0.012709715
166	0x3cfe3cff	0.031034945
167	0xbd51eada	-0.051249363
168	0x3dad8e22	0.08474375
169	0x3cc6f43b	0.02428638
170	0x3e5bae1c	0.21453136
171	0xbb660f2a	-0.0035104253
172	0x3d01c89d	0.03168546
173	0xbd21b079	-0.039474938
174	0xbb38e7a1	-0.0028214233
175	0xbd7a0737	-0.061042037
176	0xbcc73cfc	-0.024321072
177	0x3ce3e960	0.027821243
178	0x3c796cc1	0.015223683
179	0xbd532e11	-0.051557604
180	0x3d9bac4f	0.07601225
181	0xbcf84ecc	-0.03031101
182	0x3d12403a	0.035705782
183	0x3d42c188	0.047547847
184	0xbd13322d	-0.035936523
185	0xbe021b27	-0.1270567
186	0x3c4a20da	0.012336934
187	0xbdb9cd48	-0.090723574
188	0x3d43d39e	0.047809236
189	0x3d7032c1	0.058642153
190	0xbdb9de43	-0.09075596
191	0xbd8da4b2	-0.06916179
192	0x3d2c39c5	0.04204728
193	0x3ddcfe1d	0.10790656
194	0x3d7e69de	0.06211268
195	0x3d93475a	0.071913436
196	0x3d874f31	0.066069014
197	0x3db5e12a	0.08880837
198	0x3d209a06	0.03920939
199	0x3d413a5c	0.047174796
200	0x3d112427	0.03543487
201	0x3daac08d	0.083375074
202	0x3d8467b7	0.064650945
203	0xbc4a7fcd	-0.012359572
204	0x3dba3024	0.09091213
205	0xbda1f55b	-0.07908126
206	0xbde43046	-0.1114202
207	0x3d0ced07	0.034405734
208	0x3b6f36ed	0.0036501244
209	0x3cafd8d6	0.0214657
210	0x3cfd1f4a	0.030898709
211	0xbd9daf35	-0.07699434
212	0x3d81aaf1	0.063314326
213	0x3d1b4dc9	0.03791598
214	0x3ceaf0ff	0.028679369
215	0x3d4f62a0	0.050631166
216	0xbce2a03c	-0.027664296
217	0x3c9a98a9	0.018871622
218	0xbdf7f280	-0.121068
219	0x3e2ee6ad	0.17080183
220	0x3e2e8295	0.17042
221	0x3d1b35bb	0.03789304
222	0x3cb0a4bf	0.021562932
223	0xbb7b8806	-0.0038380637
224	0x3cd74a16	0.026280444
225	0x3ce1a19a	0.027542878
226	0xbc9d2b26	-0.019185614
227	0x39d140c0	0.0003991183
228	0xbd2b62a0	-0.041842103
229	0xbd726b6c	-0.059184477
230	0x3da127ed	0.07868943
231	0xbda527c4	-0.08064225
232	0xbd745257	-0.059648838
233	0x3d095172	0.033524938
234	0x3bbf2353	0.0058330684
235	0xbd4c09e3	-0.049814116
236	0xbcf5ce51	-0.030005606
237	0xbd4697a0	-0.048484445
238	0xbd94fe1a	-0.072750285
239	0xbca223f8	-0.019792542
240	0x3ae5b9b7	0.0017526661
241	0xbcdcbe8b	-0.026946327
242	0xbd8fc4bc	-0.07019946
243	0x3dd24f99	0.10269088
244	0x3caca39c	0.021074109
245	0x3d5c597c	0.053796276
246	0xbb4e56ca	-0.0031484836
247	0x3cf8cdd9	0.030371593
248	0x3dccc074	0.09997645
249	0x3c1970df	0.0093652895
250	0xbc157d9c	-0.009124186
251	0xbd01e090	-0.0317083
252	0xbd0312a0	-0.032000184
253	0xbbfd582f	-0.0077314596
254	0x3d9a75e9	0.07542021
255	0x3bb62497	0.005558561

model.1.0.bias f4 [16]
0	0xbc8af99d	-0.016964728
1	0x3d330e91	0.043715063
2	0x3d8032fb	0.06259724
3	0x3c88c1af	0.016693918
4	0xbd2c8351	-0.04211742
5	0xbd80edb0	-0.06295335
6	0xbd8420bd	-0.06451557
7	0xbd8e9c18	-0.06963366
8	0xbe0c876b	-0.13723533
9	0xbdd240aa	-0.1026624
10	0x3c6c86ec	0.014436465
11	0xbd6de5c4	-0.05808045
12	0xbdc93b63	-0.0982578
13	0xbdafe035	-0.08587686
14	0x3c2ff6fa	0.010740036
15	0xbdba712a	-0.091036156

model.1.2.weight f4 [16]
0	0x3f671c40	0.9027748
1	0x3f5a7dc6	0.85348165
2	0x3f64a264	0.8931029
3	0x3f6e6cbd	0.9313467
4	0x3f808ecc	1.0043578
5	0x3f6a678b	0.91564244
6	0x3f7f4d38	0.997272
7	0x3f8087c6	1.0041435
8	0x3f87da8e	1.0613573
9	0x3f8abacf	1.083826
10	0x3f8808b6	1.0627658
11	0x3f826b91	1.0189077
12	0x3f8992bc	1.0747905
13	0x3f7af4fb	0.9803006
14	0x3f695e54	0.9115956
15	0x3f8b4168	1.0879335

model.1.2.bias f4 [16]
0	0xbd3fd342	-0.04683233
1	0x3dbfe728	0.093702614
2	0x3dd1d767	0.10246163
3	0xbda4c1da	-0.08044787
4	0x3c95d7ff	0.018291472
5	0x3baff0b4	0.00536927
6	0xbd6949f0	-0.056955278
7	0x3c96ce4a	0.018408913
8	0xbbd092c4	-0.006365152
9	0x3df48006	0.11938481
10	0x3d58d5d2	0.05293829
11	0xbd33c148	-0.0438855
12	0xbc69ee01	-0.014277936
13	0xbd50af45	-0.0509484
14	0x3d2d41c2	0.04229904
15	0x3c84155e	0.01612347

model.1.2.running_mean f4 [16]
0	0x3d8bacd8	0.06820077
1	0x3e2ac34d	0.16676064
2	0x3e92d65f	0.28679177
3	0x3ee70374	0.45119822
4	0x3dda3d30	0.10656202
5	0x3c96440e	0.018342998
6	0x3d4ffa6e	0.050775938
7	0x3da7b84f	0.08189451
8	0xbc08cf3e	-0.008350192
9	0xbb85bb04	-0.004081132
10	0x3df14c4b	0.1178213
11	0x3d82d38c	0.063880056
12	0x3d213fee	0.03936761
13	0x3de586b1	0.11207331
14	0x3f2e5f55	0.68114215
15	0x3cdaba79	0.026700245

model.1.2.running_var f4 [16]
0	0x3ddd823e	0.10815857
1	0x3e3396de	0.1753802
2	0x3fa20180	1.2656708
3	0x40432c0c	3.0495634
4	0x3dbd8e9e	0.09255718
5	0x3d898537	0.06714862
6	0x3d313801	0.0432663
7	0x3d2a0fcc	0.04151897
8	0x3c9e4498	0.019319817
9	0x3cec9b53	0.028882658
10	0x3d91856a	0.07105525
11	0x3d7d1a5a	0.06179271
12	0x3d0ff275	0.035143334
13	0x3da29ad8	0.0793969
14	0x40cf0b91	6.470162
15	0x3d56eb05	0.052470226

model.2.0.weight f4 [32, 16, 3, 3]
0	0x3d586e16	0.05283936
1	0x3d11845e	0.035526626
2	0x3d0822fb	0.033236485
3	0x3d89b064	0.06723097
4	0xba0e2e63	-0.0005423782
5	0x3d97d490	0.0741359
6	0x3d2ea76f	0.042640146
7	0x3d2d6eda	0.042342044
8	0xbd2a034f	-0.04150706
9	0xbd8bf492	-0.068337575
10	0x3d686d3c	0.0567448
11	0x3d5aac4a	0.053386964
12	0xbbcde32b	-0.006283184
13	0xbbb74fd2	-0.005594232
14	0xbd618431	-0.05505771
15	0xbc906ec0	-0.017630935
16	0xbd71344e	-0.058887772
17	0xbc6c8cc3	-0.014437857
18	0x3cb9e95f	0.022694288
19	0x3d31b983	0.04338981
20	0xbd90e25c	-0.070744246
21	0xbd2b9fd0	-0.041900456
22	0xbc4f36cf	-0.012647345
23	0xbd1d90e2	-0.03846825
24	0xbcb4b46f	-0.022058694
25	0xbd7a14d4	-0.06105502
26	0x3dc773a1	0.09738851
27	0xbc5f2569	-0.013619759
28	0x3d89bb72	0.067252055
29	0xbc13ad08	-0.009013422
30	0xbd43f763	-0.04784335
31	0xbd10de27	-0.03536811
32	0xbb29500e	-0.002583507
33	0x3c808ce0	0.015692174
34	0x3d111766	0.035422705
35	0x3d548af5	0.051890332
36	0xbb81dc40	-0.0039630234
37	0xbd3b614c	-0.045747086
38	0x3d242996	0.040078722
39	0xbbae15b9	-0.005312648
40	0xbcf7b280	-0.030236483
41	0x3cd0983c	0.025463216
42	0x3d9c7e59	0.076412864
43	0x3bef0c7e	0.0072951904
44	0x3cb07432	0.021539781
45	0x3d2b1ae5	0.041773695
46	0xbd9cea73	-0.07661905
47	0x3d333856	0.043754898
48	0x3da021e4	0.07818964
49	0x3bd1cbb7	0.0064024585
50	0xbd3632a3	-0.044481885
51	0xbcf9148a	-0.030405302
52	0xbcd288da	-0.025700022
53	0xbc08a416	-0.008339902
54	0x3d4aedca	0.04954318
55	0x3d553502	0.052052505
56	0x3db540d8	0.088502586
57	0x3d7178c6	0.05895307
58	0xbdb6a5ca	-0.089183405
59	0xbd9d30d0	-0.07675326
60	0x3d901ab8	0.07036346
61	0xbbc6727f	-0.0060561295
62	0xbc34d538	-0.011037163
63	0xbd39c810	-0.04535681
64	0xbd0572b1	-0.03258008
65	0x3d4c9509	0.04994682
66	0xba356d81	-0.00069209194
67	0xbd6422cc	-0.055697247
68	0xbdb1a96f	-0.08674895
69	0x3d8f0afe	0.069845185
70	0x3d0169d0	0.03159505
71	0x3d4ed9ce	0.050500683
72	0xbd8b11d9	-0.067905135
73	0x3da4cd0a	0.080469206
74	0xbc0e945e	-0.008702366
75	0xbd86ef89	-0.065886565
76	0x3db89181	0.09012128
77	0xbce5d037	-0.028053386
78	0x3b84575b	0.004038734
79	0x3d8331f3	0.064060114
80	0xbd86719a	-0.065646365
81	0xbb8a44f9	-0.004219648
82	0x3de6fbea	0.112785175
83	0xbb1dd62d	-0.0024083958
84	0xbdc03269	-0.09384615
85	0x3dea6479	0.11444945
86	0x3de1406c	0.109986156
87	0xbde74ee5	-0.11294345
88	0xbdb08d0f	-0.08620655
89	0xbc8e42ab	-0.017365774
90	0x3d0443b6	0.032291137
91	0xbd1905a1	-0.037358884
92	0x3d2ef5e1	0.042714957
93	0x3dc9df6c	0.098570675
94	0xbca958de	-0.020672258
95	0xbd4e3de5	-0.050351996
96	0x3dc5007e	0.096192345
97	0x3dc12186	0.09430222
98	0x3d9360ae	0.071961746
99	0x3d8ebf99	0.06970138
100	0xbd576ddf	-0.052595016
101	0xbbbb839f	-0.0057224776
102	0xbcf2b1d5	-0.029625813
103	0x3cff0516	0.031130355
104	0x3dad909e	0.08474849
105	0xbba38169	-0.004989792
106	0xbcc9bacd	-0.024625206
107	0x3d9713b6	0.073768064
108	0x3cf8d27b	0.030373802
109	0xbd57dbc4	-0.05269982
110	0x3d3a922c	0.045549557
111	0xbd37e9df	-0.04490077
112	0xbd68a2f7	-0.05679604
113	0x3ca0809f	0.019592581
114	0x3b8c2d2d	0.0042778463
115	0x3d9ee247	0.07758003
116	0xbc00151d	-0.007817534
117	0x3d3e8c38	0.04652044
118	0xbd1c7ba3	-0.038203847
119	0xbd223b7d	-0.039607514
120	0xbdb22689	-0.08698756
121	0xbd1fd1ae	-0.039018326
122	0x3d5987bf	0.053107973
123	0x3cd2cf96	0.02573375
124	0x3c09118b	0.008365999
125	0x3cb07d02	0.021543983
126	0xbc049a66	-0.008093452
127	0x3d89e5ce	0.06733285
128	0xbc26c90c	-0.010179769
129	0x3d7e8b2b	0.06214444
130	0xbd0c81ae	-0.03430336
131	0xbd838e85	-0.06423668
132	0x3d83dfc7	0.064391665
133	0x3d767c15	0.060176928
134	0x3d2ff787	0.04296067
135	0xbd9b10a9	-0.07571537
136	0x3d5085cd	0.050908852
137	0xbd6f4a1f	-0.058420297
138	0x3db3c7ce	0.08778344
139	0x3d5c7f08	0.053832084
140	0x3da9e5ab	0.08295759
141	0xbdf82d8d	-0.12118063
142	0x3d6ae47b	0.057346802
143	0x3d147ae9	0.03625003
144	0x3ba0ad14	0.004903445
145	0x3d49c581	0.04926062
146	0xbce7737b	-0.028253308
147	0x3c8d8226	0.017273974
148	0x3e05aa92	0.13053349
149	0x3d37f2a4	0.044909135
150	0xbc3d69bd	-0.0115608545
151	0x3ca9a79c	0.020709805
152	0x3c84e9db	0.016224792
153	0x3ca8145f	0.020517526
154	0xbcfa8a0e	-0.030583408
155	0xbd856480	-0.065133095
156	0x3d944366	0.07239418
157	0xbd893607	-0.06699758
158	0xbd7b851c	-0.06140624
159	0x3d1bb57e	0.03801488
160	0x3d2b9a88	0.04189542
161	0x3c869918	0.016430423
162	0x3c6e6240	0.014549792
163	0x3d2d9d04	0.04238607
164	0x3b6bf91b	0.0036006633
165	0x3c05d845	0.008169238
166	0x3b7d8b2f	0.0038687696
167	0x3d3471a9	0.044053707
168	0xbc025124	-0.007953916
169	0x3d20dfa7	0.03927579
170	0xbcf93f55	-0.030425707
171	0xbc7093ea	-0.014683703
172	0xbd0f7c38	-0.035030574
173	0xbce895c9	-0.028391736
174	0xbce45b9e	-0.027875718
175	0x3dae0d56	0.084986374
176	0xbc96fb58	-0.018430397
177	0x3da0a966	0.0784481
178	0xbcc96918	-0.024586245
179	0x3bf9a720	0.0076188
180	0x3c93ada3	0.018027132
181	0xbbe09b44	-0.0068544466
182	0xbd8a0954	-0.067400604
183	0x3cce844e	0.025209572
184	0x3b4af6de	0.0030969898
185	0xbc2bc146	-0.010483092
186	0x3d37fb4c	0.04491739
187	0xbd2465c8	-0.04013613
188	0x3d70baba	0.058771826
189	0x3d2f724b	0.042833608
190	0xbd9ec24f	-0.07751905
191	0xbdd711bf	-0.10501432
192	0xbc846e16	-0.016165774
193	0xbcd4b092	-0.025963102
194	0x3d5d97d3	0.05409987
195	0xbdb0dfca	-0.086364344
196	0xbca68c09	-0.020330446
197	0x3d352438	0.044223994
198	0x3c59a344	0.013283554
199	0x3c555fdd	0.013023344
200	0x3cfb35b2	0.030665252
201	0x3d8fef66	0.070280835
202	0x3d455284	0.048174396
203	0x3d392850	0.04520446
204	0x3c8df43e	0.017328378
205	0xbd979d36	-0.074030325
206	0xbd24120a	-0.040056266
207	0x3e2052f1	0.1565664
208	0x3dcc58c6	0.0997787
209	0x3cddc767	0.027072622
210	0x3ddf0dd3	0.10891309
211	0x3ded3b30	0.11583555
212	0x3e1d43c8	0.15357888
213	0xbd333e83	-0.043760788
214	0x3cff595e	0.031170543
215	0x3db5fb08	0.08885771
216	0xbcf6edc8	-0.03014268
217	0xbdad9ad2	-0.08476795
218	0xbd50584d	-0.05086546
219	0xbd78d840	-0.060753107
220	0xbdd6af94	-0.104827076
221	0xbd8b5289	-0.06802852
222	0xbd052142	-0.03250242
223	0xbcfe6ccb	-0.031057736
224	0xbaed26f9	-0.001809328
225	0x3d96563f	0.07340669
226	0xbca6d7bb	-0.02036654
227	0x3d4b86f1	0.049689237
228	0x3d214d0c	0.03938012
229	0xbbc3e137	-0.0059777754
230	0xbccf886d	-0.025333608
231	0x3d86b519	0.065775104
232	0xbc4b1c59	-0.012396895
233	0xbd5af5cb	-0.053457063
234	0xbd0d2e7e	-0.034468167
235	0x3d4673c3	0.048450243
236	0xbda02619	-0.078197666
237	0x3daadc0a	0.0834275
238	0xbc936e65	-0.017996976
239	0x3d725be9	0.059169684
240	0x3ccf33b0	0.025293201
241	0x3c964d6d	0.018347466
242	0xbd5e6c0d	-0.054302264
243	0xbaf4d0f6	-0.0018677998
244	0x3d31808e	0.04333549
245	0xbd5dce59	-0.054151867
246	0x39d00804	0.00039678824
247	0xbd5cbdc8	-0.053891927
248	0x3e08d3f7	0.13362108
249	0x3dd00941	0.10158015
250	0xbd4ebc16	-0.05047234
251	0x3da00d88	0.07815081
252	0xbd5eec5c	-0.05442463
253	0xbcf7683c	-0.03020107
254	0x3c488da5	0.012240802
255	0xbddafb2f	-0.10692441

model.2.0.bias f4 [32]
0	0xbe5b5369	-0.21418537
1	0xbdeb5832	-0.11491431
2	0xbde3e6f8	-0.11128038
3	0x3de449f1	0.11146916
4	0x3bfae57a	0.0076567503
5	0xbc89bac0	-0.016812682
6	0xbd9e394e	-0.07725774
7	0x3ceebc9f	0.029142676
8	0xbd4dd075	-0.05024763
9	0x3ce4f2e2	0.027947847
10	0xbd23c714	-0.039984778
11	0xbd8df1f0	-0.069309115
12	0x3c072eb1	0.008250878
13	0xbcfbb632	-0.030726526
14	0xbbf338be	-0.0074225357
15	0xbda66154	-0.081240326
16	0xbb36ecdc	-0.0027912175
17	0x3c9a1f01	0.018813612
18	0xbe04d5e2	-0.12972215
19	0xbe12430f	-0.14283393
20	0x3c8d682d	0.017261589
21	0xbe18fe22	-0.14940694
22	0x3cc411d1	0.023934277
23	0x3cd054c2	0.02543104
24	0xbc58f020	-0.013240844
25	0xbcf55ea6	-0.029952358
26	0xbdcb2d61	-0.09920765
27	0xbd5f7e91	-0.054564063
28	0xbd917b60	-0.0710361
29	0xbd9ba681	-0.076001175
30	0xbd1c9790	-0.03823048
31	0xbdb799cf	-0.089648835

model.2.2.weight f4 [32]
0	0x3f80eaee	1.0071695
1	0x3f77ae9d	0.96750814
2	0x3f81ef15	1.0151087
3	0x3f7f6b64	0.9977324
4	0x3f82db80	1.0223236
5	0x3f7e429a	0.99320376
6	0x3f73ba5f	0.95206255
7	0x3f808a05	1.004212
8	0x3f7f6d55	0.997762
9	0x3f801e5e	1.0009267
10	0x3f7dc2be	0.9912528
11	0x3f7f52f4	0.9973595
12	0x3f7d9e2d	0.9906948
13	0x3f87cb87	1.0608987
14	0x3f8298c9	1.0202876
15	0x3f7f8466	0.998114
16	0x3f7d6538	0.9898257
17	0x3f819f9e	1.0126836
18	0x3f831ff9	1.0244132
19	0x3f815b53	1.0105995
20	0x3f73951e	0.9514941
21	0x3f8182c0	1.0118027
22	0x3f8204a8	1.0157671
23	0x3f73e277	0.9526743
24	0x3f83fdfd	1.0311886
25	0x3f7a9a06	0.9789127
26	0x3f7d1647	0.9886212
27	0x3f825229	1.0181323
28	0x3f79db55	0.976003
29	0x3f7894a1	0.9710179
30	0x3f82f5ce	1.0231264
31	0x3f84a36a	1.036237

model.2.2.bias f4 [32]
0	0xbd5b47e4	-0.053535357
1	0x3d9f1a92	0.0776874
2	0x3d0b6bb7	0.03403827
3	0xbd35b89e	-0.044365518
4	0x3c36f692	0.011167185
5	0x3c78ecae	0.015193148
6	0x3dfe2c2f	0.12410771
7	0xbc6c3b48	-0.014418431
8	0xbcdc95d2	-0.026926909
9	0x3d754a5f	0.05988538
10	0x3bf9faed	0.0076287896
11	0xbccefc33	-0.025266742
12	0x3d3b6db0	0.045758903
13	0x3c8c6b32	0.017140958
14	0x3cd5a589	0.02607991
15	0x3d807b84	0.06273559
16	0xbbb22b3c	-0.005437283
17	0x3e0d5490	0.1380179
18	0xbd895300	-0.06705284
19	0xbdc97970	-0.098376155
20	0xbd4f0fb1	-0.050552074
21	0xbd9f14d6	-0.07767646
22	0xbd7f54f9	-0.062336896
23	0x3d95efe4	0.07321146
24	0x3bece347	0.007229242
25	0xbdd362ad	-0.10321555
26	0xbc9be3f1	-0.01902959
27	0x3df45140	0.1192956
28	0xbb92572f	-0.0044659595
29	0x3cc217e8	0.02369304
30	0x3d10b9e5	0.035333533
31	0xbdb5f142	-0.08883907

model.2.2.running_mean f4 [32]
0	0x3d761671	0.060079996
1	0x3e06df63	0.13171153
2	0x3d8a2b88	0.06746584
3	0x3ed43a8b	0.41450915
4	0x3e431f43	0.19054894
5	0x3e1df9a5	0.15427263
6	0x3e133c58	0.14378488
7	0x3ea2f1b0	0.31825018
8	0x3e2d4d8a	0.1692411
9	0x3e9a3873	0.30121192
10	0x3e21c58d	0.15798016
11	0x3e0a08e0	0.13479948
12	0x3e8c2742	0.273737
13	0x3e35652f	0.1771438
14	0x3e145fa7	0.14489613
15	0x3e11313f	0.14178942
16	0x3e5ded60	0.21672583
17	0x3e184a9a	0.14872208
18	0x3df6ee58	0.12057179
19	0x3dc3088b	0.09523114
20	0x3e390e80	0.18071938
21	0x3d805616	0.062664196
22	0x3e4a4137	0.1975144
23	0x3e487115	0.19574387
24	0x3e32cea0	0.17461634
25	0x3e24bba0	0.16087198
26	0x3de74b51	0.11293662
27	0x3de97db6	0.114009306
28	0x3dee35cf	0.11631357
29	0x3e2f483c	0.17117399
30	0x3e1ae3f6	0.15126023
31	0x3ddd2e0e	0.107998

model.2.2.running_var f4 [32]
0	0x3e3735d0	0.17891622
1	0x3eacb210	0.337296
2	0x3db3a894	0.08772388
3	0x3e75b13b	0.2399339
4	0x3e355f26	0.17712077
5	0x3e2b4f2b	0.16729419
6	0x3dfc82fb	0.1232967
7	0x3e3dc4bd	0.18532081
8	0x3e147ff3	0.14501934
9	0x3e31db6b	0.17368858
10	0x3e236548	0.15956604
11	0x3e2075ea	0.1566998
12	0x3f53f823	0.828005
13	0x3e19c47d	0.1501636
14	0x3de47906	0.11155896
15	0x3de7ef63	0.11324956
16	0x3e41ff47	0.18945037
17	0x3e699cba	0.22813693
18	0x3e1c0add	0.15238519
19	0x3e05e897	0.13077007
20	0x3e3e23ce	0.18568346
21	0x3e34d4a0	0.17659235
22	0x3e0ea570	0.13930297
23	0x3e0c724e	0.13715479
24	0x3e23d72e	0.16000053
25	0x3e2f59e6	0.17124137
26	0x3e4d3e53	0.20043306
27	0x3e038484	0.1284352
28	0x3e041949	0.1290027
29	0x3e841acc	0.25801694
30	0x3e3213cb	0.17390363
31	0x3e06e279	0.1317233

model.3.0.weight f4 [32, 32, 3, 3]
0	0x3c1648e2	0.00917265
1	0xbca94bcb	-0.020666024
2	0xbcc0c184	-0.023529775
3	0x3d679981	0.056542877
4	0x3d102a1b	0.035196405
5	0xbcb6ad22	-0.022299353
6	0xbcd597d0	-0.026073366
7	0xbd01a300	-0.03164959
8	0x3ca5bb7a	0.020230997
9	0x3c333cdd	0.010939804
10	0x3d1f5e5a	0.03890834
11	0x3d40c1a5	0.047059674
12	0xbd4023e2	-0.04690922
13	0xbcbb8638	-0.022891149
14	0xbb9db04d	-0.0048122765
15	0x3c69bdd1	0.014266447
16	0x3d80bf57	0.06286495
17	0xbbc1546e	-0.0058999574
18	0xbd764e12	-0.060133047
19	0x3d6fde3d	0.058561552
20	0x3d8f24dc	0.06989452
21	0x3db69192	0.08914484
22	0x3d9fd696	0.07804601
23	0x3ba08905	0.0048991465
24	0x3d26d8cc	0.040734097
25	0x3d74b955	0.05974706
26	0x3dd10265	0.10205535
27	0xbd89d1aa	-0.06729443
28	0xbd1414d3	-0.036152672
29	0xbc5791d3	-0.013157326
30	0x3c98fb72	0.018674586
31	0x3d324222	0.0435201
32	0x3d6bef0d	0.057601023
33	0x3d14f6f4	0.036368325
34	0x3d97f3aa	0.07419522
35	0x3cabb789	0.02096154
36	0x3d86bc70	0.0657891
37	0x3c5f1249	0.013615199
38	0xbc86b3cd	-0.016443158
39	0xbbc20af9	-0.005921718
40	0xbbbd6d2b	-0.005780836
41	0x3cd98754	0.026553787
42	0xbbe95dad	-0.0071217627
43	0xbd286d28	-0.041119725
44	0xbd1997f1	-0.03749842
45	0xbcc3cb6d	-0.023900712
46	0x3d584905	0.05280401
47	0xbd7259eb	-0.059167784
48	0x3d6c8f85	0.05775406
49	0x3ccb6c94	0.024832048
50	0x3c1eeb9b	0.009699727
51	0x3cedd6c5	0.029033074
52	0x3da09eb8	0.07842773
53	0xbc5c3cfa	-0.013442272
54	0xbd56c64e	-0.05243521
55	0xbd17c90c	-0.037056968
56	0x3cdbf9f1	0.02685258
57	0xbd1a251f	-0.037633058
58	0x3d3c0d7e	0.045911305
59	0x3caf1132	0.021370504
60	0x3ce90b00	0.028447628
61	0xbd549e5c	-0.051908836
62	0xbd63a5d3	-0.055578064
63	0x3c7fe398	0.015618227
64	0x3cb4cb5d	0.022069627
65	0xbd4d9f6f	-0.050200876
66	0x3cc575de	0.024104055
67	0x3d75daba	0.060023047
68	0xbc8dc224	-0.017304488
69	0x3dabb994	0.083850056
70	0xbd2fb648	-0.042898446
71	0x3d2991d5	0.041398842
72	0xbca93b40	-0.020658135
73	0x3c4bec2c	0.0124464445
74	0x3c46f3c5	0.01214308
75	0x3cfcf9ae	0.030880775
76	0xbd80cc44	-0.062889606
77	0xbb8370ab	-0.004011234
78	0xbd038bff	-0.032115933
79	0x3ca9642a	0.020677645
80	0x3d594e5b	0.05305324
81	0x3c9c7e11	0.019103082
82	0x3be00140	0.0068360865
83	0x3d4b4a9e	0.049631707
84	0x3cbca56b	0.023028096
85	0x3d8553a2	0.06510092
86	0xbd4e6189	-0.050385986
87	0x3cfca3e9	0.030839877
88	0xbce9ef68	-0.02855654
89	0xbc0aa54f	-0.008462264
90	0xbd190d28	-0.037366062
91	0xbce9f736	-0.028560262
92	0xbd2cc6ec	-0.042181894
93	0x3d86544c	0.06559047
94	0x3dd985d8	0.10621232
95	0xbcdd952a	-0.027048666
96	0xbc0cbb0d	-0.008589518
97	0xbd375419	-0.044757936
98	0x3d0f9e21	0.035062913
99	0x3d676959	0.05649695
100	0x3dc366c9	0.09541089
101	0xbd4fc8b3	-0.05072851
102	0xbd4270aa	-0.047470726
103	0x3c6e9906	0.014562851
104	0x3cbc8f91	0.023017677
105	0xb9969652	-0.00028722227
106	0xbd4e99ff	-0.05043983
107	0xbd528d43	-0.05140425
108	0xbd60c37a	-0.05487392
109	0xbd821863	-0.06352308
110	0x3d57f492	0.052723475
111	0xbb5cfdd8	-0.0033720639
112	0xbc2c99ac	-0.010534685
113	0x3b43ec69	0.002989555
114	0xbb947bdc	-0.0045313668
115	0x3d4021a5	0.046907086
116	0x3c0de493	0.008660453
117	0x3c923a3c	0.017850034
118	0x3d380dfc	0.04493521
119	0xba50fc92	-0.0007972206
120	0xbd62a990	-0.05533749
121	0x3d3de535	0.046361167
122	0x3c7af756	0.015317759
123	0xb991b35a	-0.00027790183
124	0x3db6e8e8	0.08931142
125	0xbd5ba69b	-0.053625684
126	0x3c53d448	0.01292903
127	0x3beb9c2b	0.0071902475
128	0xbd294f5c	-0.04133545
129	0xbcf08fd5	-0.02936546
130	0x3ce83577	0.028345807
131	0xbd0d3337	-0.03447267
132	0x3ba10195	0.0049135187
133	0xbb0d2b53	-0.0021540716
134	0xbc5a14b9	-0.013310605
135	0xbc93e9aa	-0.018055756
136	0xbcaa0783	-0.020755535
137	0x3d636d28	0.05552402
138	0x3a94b8ee	0.0011346617
139	0xba331106	-0.0006830845
140	0x3c89c823	0.016819065
141	0xbd5c164a	-0.053732194
142	0xbd101f41	-0.035186056
143	0xbd0d763c	-0.034536585
144	0x3c8c2e19	0.017111825
145	0xbccfa7fd	-0.025348658
146	0xbd2d2873	-0.042274904
147	0xbd392198	-0.045198053
148	0x3c709721	0.014684469
149	0x3d3a3b41	0.045466665
150	0x3d42bd25	0.047543664
151	0x3c8d71c7	0.017266167
152	0xbc5bcd29	-0.013415613
153	0x3d7317cf	0.059348878
154	0x3d75cda3	0.060010564
155	0xbce3abe2	-0.027791921
156	0x3cf77c02	0.030210499
157	0xba0eda57	-0.0005449405
158	0xbc5dcaa8	-0.013537087
159	0x3c9921a0	0.018692791
160	0x3d927f6e	0.071532115
161	0x3c2d1261	0.010563464
162	0xbc0fd6cc	-0.008779239
163	0x3c6775f5	0.014127244
164	0xbd088f5c	-0.033339843
165	0x3d47a10b	0.048737567
166	0xbd98d75b	-0.07462951
167	0x3c08145c	0.008305635
168	0x3c5d2987	0.01349867
169	0xbbfbcec0	-0.0076845586
170	0xbc6a9a37	-0.014318994
171	0xbc5f7c12	-0.0136404205
172	0xbd2fb4fa	-0.042897202
173	0x3bbdb793	0.005789706
174	0xbcd53e42	-0.026030663
175	0xbb08794d	-0.0020824254
176	0xbcb8eb2f	-0.022573082
177	0x3d4f6cd3	0.050640892
178	0xbcc49a6f	-0.02399942
179	0x3cec89e7	0.02887435
180	0xb9836b0d	-0.00025066026
181	0xbdb0912e	-0.08621441
182	0x3d3f811a	0.04675398
183	0x3c74844f	0.014924123
184	0xbcddc94a	-0.027073521
185	0xbcdda999	-0.02705841
186	0x3c29524c	0.0103345625
187	0x3c07af37	0.008281521
188	0xbd92dac3	-0.07170632
189	0xbc0c7955	-0.00857385
190	0xbd32b5df	-0.043630477
191	0xbd06e4a1	-0.03293288
192	0x3c900ffb	0.017585745
193	0x3b5721d3	0.0032826557
194	0xbd4162f0	-0.047213495
195	0x3c8cc9ea	0.017186124
196	0x3d18e58c	0.037328288
197	0x3d5fa651	0.05460197
198	0x3d3c830d	0.046023417
199	0xbd5e6bd7	-0.054302063
200	0x3c0e450f	0.008683457
201	0x3c8e4c36	0.017370325
202	0x3c9e2cd4	0.019308485
203	0xbd6ba171	-0.05752701
204	0xbbeb372c	-0.007178208
205	0xbd6928e0	-0.056923747
206	0x3c81b0b7	0.015831335
207	0x3c02c3dd	0.007981268
208	0xbd6f83fc	-0.05847548
209	0x3ce2a2d5	0.027665535
210	0xbbfe044a	-0.007751976
211	0xbcdeec2a	-0.027212221
212	0x3e1bc97e	0.15213582
213	0x3d37c616	0.044866644
214	0x3b89a049	0.0042000157
215	0x3c4f8ae8	0.012667395
216	0x3cb0b8ba	0.02157246
217	0x3d446546	0.047948144
218	0x3d381ff2	0.04495234
219	0xbb091695	-0.0020918
220	0xbc1cc89d	-0.009569314
221	0xbc911980	-0.017712355
222	0x3d0eb131	0.03483695
223	0xbd95446f	-0.07288443
224	0xbd7a6a6c	-0.061136648
225	0xbd9a83c2	-0.07544662
226	0xbd651efb	-0.05593775
227	0xbc51fdc0	-0.012816846
228	0xbd4da260	-0.05020368
229	0x3d169913	0.036767077
230	0xbc041b51	-0.008063153
231	0x3c1656b0	0.009175941
232	0xbce97a3e	-0.028500672
233	0xbd3b4f68	-0.045730025
234	0x3d319c99	0.043362234
235	0x3cf76fab	0.030204615
236	0x3ce64a49	0.028111594
237	0x3c12b05a	0.008953178
238	0x3d113c8c	0.035458133
239	0x3da19810	0.07890332
240	0xbcaad854	-0.020855106
241	0x3d852ecd	0.06503067
242	0x3d1b90c5	0.03797986
243	0xbd60dd5e	-0.054898612
244	0x3c8e5ce9	0.017378287
245	0xbd3f4fe0	-0.046707034
246	0x3d4c5380	0.04988432
247	0x3d8e339e	0.06943439
248	0xbc61dc5b	-0.013785447
249	0x3dae9f0d	0.0852643
250	0x3d89fa50	0.067371964
251	0x3d65c28d	0.05609374
252	0xbc541ef7	-0.012946836
253	0xbc2c14e5	-0.0105030285
254	0x3d221aa6	0.039576195
255	0xbb3f7192	-0.002921198

model.3.0.bias f4 [32]
0	0xbd0242d1	-0.031802002
1	0xbdfd6a3a	-0.12373777
2	0xbc9371ce	-0.017998602
3	0x3e062bb5	0.1310261
4	0xbd9c039d	-0.07617877
5	0x3dcaba21	0.098987825
6	0xbc3845d9	-0.011247122
7	0xbd8d4cda	-0.06899424
8	0xbe01da4a	-0.12680927
9	0x3d36516f	0.044511255
10	0x398a75a5	0.00026409063
11	0x3d627dee	0.055295877
12	0xbd465d33	-0.048428725
13	0xb9839607	-0.00025098046
14	0x3bddfa29	0.006774206
15	0xbc44fe1f	-0.012023478
16	0x3cc0eb0f	0.023549585
17	0x3d7bbb16	0.061457716
18	0xbd0500fc	-0.032471642
19	0x3d98e7ac	0.07466063
20	0xbd493952	-0.04912693
21	0xbda259d4	-0.079272896
22	0xbcbb04a4	-0.022829361
23	0x3d8034f2	0.062600985
24	0xbdcbd544	-0.099527866
25	0xbbe137c7	-0.0068731043
26	0x3c81924c	0.01581683
27	0x3d2461c5	0.040132303
28	0xbdb3730c	-0.08762178
29	0x3c6a7c64	0.014311884
30	0xbd789f65	-0.060698885
31	0xbd3821d1	-0.044954125

model.3.2.weight f4 [32]
0	0x3f7baecd	0.983136
1	0x3f7f07df	0.99621385
2	0x3f8455b4	1.0338655
3	0x3f83486f	1.025648
4	0x3f7db2f8	0.9910121
5	0x3f7cb869	0.9871889
6	0x3f7d56e1	0.9896069
7	0x3f7bce27	0.9836144
8	0x3f7dec1a	0.9918839
9	0x3f8269e0	1.018856
10	0x3f81276b	1.0090154
11	0x3f7a27b1	0.97716814
12	0x3f80b7ed	1.005613
13	0x3f802e7b	1.0014185
14	0x3f7e3b4d	0.99309236
15	0x3f8271e5	1.0191008
16	0x3f839d88	1.028245
17	0x3f74a543	0.9556467
18	0x3f787b9c	0.9706361
19	0x3f74f2c8	0.95682955
20	0x3f7dd8be	0.9915885
21	0x3f7f2ab0	0.9967451
22	0x3f80837c	1.0040126
23	0x3f809bcf	1.0047549
24	0x3f8389ea	1.0276463
25	0x3f81befa	1.0136406
26	0x3f7fca63	0.9991819
27	0x3f808f55	1.0043741
28	0x3f816806	1.010987
29	0x3f7dee79	0.99192005
30	0x3f7617b4	0.9612992
31	0x3f7d8409	0.99029595

model.3.2.bias f4 [32]
0	0x3d71e6ab	0.059057873
1	0x3d8837da	0.06651278
2	0x3c90d6ff	0.017680643
3	0x3cdf23a0	0.027238667
4	0xbd0cad15	-0.03434475
5	0x3e093cca	0.13402095
6	0xbb9e6b8b	-0.0048345975
7	0xbd10a9c9	-0.03531817
8	0xbd4630e6	-0.048386477
9	0x3bc8ec42	0.0061316798
10	0x3d7e2400	0.06204605
11	0x3e34c17f	0.17651938
12	0x3b52effa	0.0032186494
13	0x3dae1c82	0.08501531
14	0x3c341fbc	0.010993894
15	0xbd341057	-0.043960895
16	0xbd349c07	-0.04409411
17	0xbd76909c	-0.060196504
18	0x3d8b39d8	0.06798142
19	0xbd7a83eb	-0.061160963
20	0x3e0e3342	0.13886741
21	0x3d0a7e9f	0.03381216
22	0x3c247c86	0.010039454
23	0x3c995851	0.01871887
24	0xbd21abb4	-0.03947039
25	0xbd8abeb5	-0.06774656
26	0xbb911f59	-0.0044287858
27	0x3b954184	0.004554929
28	0x3d712299	0.058870886
29	0xbdd2dea9	-0.10296375
30	0xbc55a6f3	-0.013040292
31	0xbd5f6ef5	-0.054549176

model.3.2.running_mean f4 [32]
0	0x3e8091b2	0.25111157
1	0x3e288487	0.16456805
2	0x3e6eb97c	0.23312944
3	0x3eba5ea2	0.36400324
4	0x3e2b261b	0.16713755
5	0x3ebe2be7	0.3714287
6	0x3e65605f	0.22400044
7	0x3e37ec8e	0.17961332
8	0x3e0f84fa	0.1401557
9	0x3e97f66b	0.2968019
10	0x3eb506a5	0.35356632
11	0x3e6c6efb	0.2308921
12	0x3e2d04d4	0.16896373
13	0x3e9b188c	0.30292165
14	0x3e64a2ef	0.22327779
15	0x3e5497d3	0.20761041
16	0x3eab7b75	0.33492628
17	0x3e834cca	0.25644523
18	0x3e42f0fe	0.19037244
19	0x3e7374f7	0.23775087
20	0x3e430a73	0.19046955
21	0x3daf3391	0.085547574
22	0x3ec2664a	0.37968665
23	0x3ede3554	0.4340006
24	0x3de5a6d5	0.11213461
25	0x3e82e8ab	0.25568137
26	0x3e8612e1	0.26186278
27	0x3ea54e6b	0.3228639
28	0x3e66b8ce	0.22531435
29	0x3e70d0ea	0.23517194
30	0x3e1e38da	0.15451375
31	0x3ddac035	0.10681192

model.3.2.running_var f4 [32]
0	0x3e5e0c8b	0.21684472
1	0x3eda73ae	0.42666382
2	0x3e898e88	0.26866555
3	0x3e9301ad	0.28712216
4	0x3e72de24	0.23717552
5	0x3e786961	0.24258949
6	0x3e819451	0.2530847
7	0x3ef672ab	0.4813436
8	0x3e387ec0	0.18017101
9	0x3e8944c3	0.26810274
10	0x3ee99362	0.45620257
11	0x3e6ac6af	0.22927354
12	0x3f1421f3	0.578643
13	0x3f829c23	1.0203899
14	0x3e8fae9e	0.2806291
15	0x3e1df1d9	0.15424289
16	0x3e8a4a11	0.27009633
17	0x3e8485ed	0.25883427
18	0x3e6f7eda	0.23388234
19	0x3e591ddd	0.21202798
20	0x3ef74ef4	0.48302424
21	0x3e976cdb	0.29575238
22	0x3e9b9d2e	0.30393356
23	0x3e97d4da	0.2965458
24	0x3e29c00b	0.16577165
25	0x3e73b23b	0.23798458
26	0x3e7755a9	0.2415377
27	0x3e9908e6	0.298896
28	0x3f849db7	1.0360631
29	0x3e6a30db	0.228702
30	0x3eaee396	0.3415801
31	0x3e134bbe	0.14384362

model.4.0.weight f4 [64, 32, 3, 3]
0	0x3c2dd013	0.010608691
1	0x3d813528	0.06308967
2	0x3c8af2d9	0.016961502
3	0x3dad5480	0.08463383
4	0x3ceec55a	0.029146839
5	0x3d505d4b	0.05087022
6	0xbdcc0522	-0.099619165
7	0x3c6fff28	0.014648236
8	0xbdaa3c8b	-0.08312329
9	0xbd6a1a07	-0.057153728
10	0xbd071dfe	-0.032987587
11	0xbc88a0ea	-0.016678292
12	0xbd39e40c	-0.045383498
13	0xbd27d175	-0.04097124
14	0xbc618c31	-0.013766334
15	0xbd4bdfd7	-0.049774017
16	0xbccb53a4	-0.024820156
17	0xbb81e921	-0.0039645587
18	0xbd4f6e07	-0.05064204
19	0x3c01a3c1	0.007912577
20	0xbd7e41ba	-0.0620744
21	0x3c862178	0.016373381
22	0xbd798ddb	-0.0609263
23	0xbd097688	-0.033560306
24	0x3db89910	0.09013569
25	0xbc16b64e	-0.009198738
26	0x3c20f4f8	0.00982403
27	0x3a859354	0.0010191002
28	0x3c41b58d	0.01182307
29	0x3ce78c32	0.028265093
30	0x3cc9de5b	0.02464216
31	0xbd3e4a4d	-0.046457577
32	0x3da74ab9	0.08168549
33	0xbd8f8933	-0.070085905
34	0xbdb3c28d	-0.08777342
35	0xbd522f83	-0.051314842
36	0x3b0a45ea	0.00210988
37	0x3d83ba51	0.064320214
38	0x3d1a0e6a	0.037611403
39	0xbd2a59af	-0.041589435
40	0x3d21b68a	0.039480723
41	0x3cff476b	0.031161984
42	0x3b1af404	0.002364398
43	0xbc478a55	-0.012178977
44	0x3a3ef241	0.00072840234
45	0xbcec0554	-0.028811134
46	0x3d73643c	0.059421763
47	0xbd575815	-0.052574236
48	0xbcd32117	-0.025772614
49	0x3caa68d9	0.020801948
50	0xbbcfeaaa	-0.006345113
51	0xbc6b7514	-0.014371175
52	0xbc94cdc2	-0.01816452
53	0xbc44626f	-0.011986359
54	0x3bccd18f	0.0062505673
55	0xbd43297b	-0.04764698
56	0x3c7496c6	0.014928525
57	0x3a6e2a04	0.00090852403
58	0xbcf0aead	-0.029380167
59	0xbd26ac05	-0.040691394
60	0xbd759eb6	-0.05996581
61	0x3cc3baa7	0.023892714
62	0x3ca86e02	0.020560268
63	0x3d80c652	0.062878266
64	0xbd307214	-0.043077543
65	0xbd19e387	-0.037570503
66	0x3d897693	0.06712069
67	0x3cec8888	0.028873697
68	0xbc4ff935	-0.012693693
69	0x3d2638e4	0.0405816
70	0xbce4fa6a	-0.027951438
71	0x3ca72370	0.02040264
72	0x3c020ddb	0.007937874
73	0x3c7b16be	0.015325246
74	0xbd65a517	-0.056065645
75	0xbc1c17b5	-0.009527137
76	0xbca2567f	-0.019816635
77	0xbd50518c	-0.05085902
78	0xbbaff0d3	-0.0053692847
79	0x3d9da20c	0.076969236
80	0xbd2ca204	-0.042146698
81	0xbb3ef814	-0.0029139565
82	0xbd19d742	-0.0375588
83	0xbd3816ef	-0.044943746
84	0x3c5221a8	0.012825407
85	0xbd0be357	-0.034152355
86	0xbd77d571	-0.060506288
87	0xbd101e2a	-0.035185017
88	0xbcc97231	-0.024590584
89	0xbd386c3e	-0.045025103
90	0xbdbbebba	-0.09175821
91	0xbd1882bb	-0.03723405
92	0xbc8dda59	-0.01731603
93	0xbd69d1ee	-0.05708497
94	0x3c5daa14	0.013529319
95	0xbd071533	-0.0329792
96	0xbcde8e47	-0.027167452
97	0x3a07b0ba	0.00051761756
98	0xbd5421ae	-0.051789932
99	0x3aa616e1	0.0012671613
100	0x3ca5b73d	0.020228976
101	0xbcf14f34	-0.029456712
102	0xbd0f46de	-0.034979694
103	0xbc8cfa93	-0.017209327
104	0xbcc84306	-0.024446022
105	0xbdcecf60	-0.100981474
106	0xbd05db7d	-0.032680023
107	0xbd791b3b	-0.060816985
108	0x3d2f4a04	0.042795196
109	0x3d64e736	0.055884562
110	0x3d986660	0.074414015
111	0xbcbcf956	-0.023068111
112	0x3ceb89ec	0.02875229
113	0x3d4ea420	0.05044949
114	0xbd99f6b7	-0.0751776
115	0xbd05febf	-0.032713648
116	0xbc9dc17e	-0.019257303
117	0xbca756d5	-0.020427147
118	0xbdeab966	-0.11461143
119	0xbdffb503	-0.12485697
120	0xbcbdb2e9	-0.0231566
121	0xbd60d3d1	-0.054889504
122	0xbdcc774f	-0.09983694
123	0xbd1a8832	-0.037727542
124	0xbd6c160d	-0.057638217
125	0xbde3269e	-0.1109135
126	0xbc1cec1d	-0.009577778
127	0x3d1c4422	0.038150914
128	0x3cd0b6d3	0.025477802
129	0x3d3a7b66	0.04552784
130	0xbcf2a48c	-0.029619478
131	0x3c408e34	0.011752654
132	0x3ca63d5d	0.020292932
133	0x3d315a26	0.043298863
134	0xbbcdb000	-0.0062770844
135	0xbc64f43f	-0.013974248
136	0xbd8121ab	-0.0630525
137	0xbd00293f	-0.031289335
138	0x3d9b8236	0.07593195
139	0xbd3b5598	-0.045735925
140	0x3db53ce6	0.08849506
141	0x3ce4fb20	0.027951777
142	0x3db9ad5d	0.090662695
143	0x3d6740a4	0.05645813
144	0xbcf1fc78	-0.029539332
145	0x3d806f2f	0.062712066
146	0x3d08267d	0.03323983
147	0xbd7bd729	-0.06148449
148	0xbd54afc6	-0.051925443
149	0xbd2e2973	-0.042519998
150	0xbce74b96	-0.028234284
151	0x3d30b321	0.04313958
152	0xbd083b51	-0.033259694
153	0xbd31603e	-0.043304674
154	0x3bf3a603	0.0074355616
155	0xbc65e21d	-0.01403096
156	0xbb911de9	-0.0044286144
157	0xbca4ba9b	-0.020108512
158	0xbd4a633c	-0.049411044
159	0x3da89187	0.08230882
160	0x3a52e187	0.00080444705
161	0x3c01616c	0.007896762
162	0x3c9e2273	0.019303536
163	0xbbb6d432	-0.005579495
164	0x3d26f3a0	0.040759683
165	0xbd3fb7e3	-0.046806227
166	0xbd546cb4	-0.05186148
167	0xbd1c769f	-0.038199063
168	0xbd4cb57a	-0.049977757
169	0x3c9126e6	0.017718744
170	0xbc4121f6	-0.011787882
171	0xbd1a326a	-0.037645735
172	0xbd81015b	-0.06299087
173	0xbd31487d	-0.04328202
174	0x3c17019f	0.009216695
175	0xbc42e1fa	-0.011894697
176	0x3d8475e5	0.06467799
177	0x3ce3cd31	0.027807804
178	0xbd76dacd	-0.06026726
179	0x3d2f5133	0.042802047
180	0xbc790c25	-0.015200649
181	0x3d19ea24	0.03757681
182	0x3d157e4e	0.036497407
183	0x3d64013a	0.055665232
184	0x3c033e28	0.008010425
185	0x3ca66cde	0.020315584
186	0x3c7eb3ad	0.015545768
187	0x3b2cb423	0.0026352487
188	0xbcbc6527	-0.022997452
189	0x3d497e43	0.04919268
190	0x3cfd2bab	0.030904612
191	0xbd6a7dd6	-0.057248913
192	0x3cc739ef	0.024319617
193	0x3b8ac2a6	0.0042346297
194	0xbb83e8cb	-0.004025554
195	0xbd77a4b4	-0.060459808
196	0xbdc499ef	-0.09599673
197	0x3d263fa0	0.04058802
198	0x3ce63805	0.028102884
199	0xbd75634e	-0.059909157
200	0xbc95a0a2	-0.018265072
201	0x3d644941	0.055733923
202	0xbd9a1b0b	-0.07524689
203	0x3c483571	0.012219773
204	0x3c47b214	0.012188453
205	0xbdb630cb	-0.08896025
206	0x3d40dc5c	0.04708515
207	0x3c937982	0.018002275
208	0x3c8535fa	0.01626109
209	0x3c904837	0.01761256
210	0xbcef9e66	-0.029250335
211	0x3d98621d	0.074405886
212	0xbcb5f756	-0.022212666
213	0x3d0492bb	0.032366496
214	0x3cf6084b	0.030033251
215	0xbda77efd	-0.08178518
216	0x3b89d6dd	0.004206522
217	0xbcc95148	-0.02457489
218	0x3cc57050	0.024101406
219	0x3d8d36e1	0.06895233
220	0xbd5d1abd	-0.053980578
221	0xbd14268f	-0.036169585
222	0x3c313845	0.010816638
223	0x3b743a23	0.0037266097
224	0x3cefb2f7	0.029260142
225	0x3d86a78e	0.06574927
226	0x3d5b220a	0.05349926
227	0xbcc85f48	-0.024459496
228	0xbd38421a	-0.044984914
229	0xbd38777b	-0.04503582
230	0xbd83c4df	-0.064340346
231	0x3c13d81a	0.009023691
232	0x3bd43276	0.006475742
233	0x3c9771b1	0.01848683
234	0xb8ea24e6	-0.000111648624
235	0xbd9625b7	-0.07331412
236	0x3b445f07	0.0029963867
237	0x3d75e2d8	0.06003079
238	0x3d8538fb	0.06505009
239	0x3c368486	0.0111399945
240	0xbc40e8c3	-0.011774245
241	0x3cb8f746	0.022578847
242	0xbca87109	-0.020561712
243	0xbda95310	-0.08267796
244	0x3cbb99d6	0.022900503
245	0xbc32f87c	-0.010923501
246	0xbd41dbd7	-0.047328796
247	0xbd86116a	-0.0654629
248	0xbc28d084	-0.01030362
249	0xbcb383bc	-0.021913402
250	0xbcfff709	-0.031245725
251	0xbc4c304e	-0.012462689
252	0xbd2475d8	-0.040151447
253	0xbce6b1dc	-0.028160982
254	0x3d18bac8	0.037287503
255	0xbdbc3f81	-0.091918

model.4.0.bias f4 [64]
0	0xbe30c82e	-0.17263862
1	0xbdcfba73	-0.10142984
2	0x3cf43e73	0.029814934
3	0xbd56ab6d	-0.052409578
4	0xbdbce014	-0.09222427
5	0x3dbc2a46	0.091877505
6	0xbc6985fc	-0.014253136
7	0xbd86080e	-0.06544505
8	0xbdf07e33	-0.117428206
9	0xbc94ceb7	-0.018164976
10	0xbd0b79c5	-0.034051675
11	0x3d773da1	0.06036151
12	0xbddb6188	-0.10711962
13	0x3d63f600	0.055654526
14	0xbe240a89	-0.16019644
15	0xbe04bd8f	-0.12962936
16	0x3ab0116e	0.0013432929
17	0x3af3a031	0.001858717
18	0xbdddd161	-0.108309515
19	0xbdb0a386	-0.086249396
20	0xbd1a5e0e	-0.037687354
21	0xbca7bced	-0.020475829
22	0xbd68c153	-0.056824993
23	0xbd9ae892	-0.075638905
24	0xbcfb611a	-0.03068595
25	0xbde40bfe	-0.111351
26	0xbd9769be	-0.073932156
27	0xbe21f5d9	-0.1581644
28	0xbdfd5e7c	-0.12371537
29	0xbd9b110d	-0.075716116
30	0x3cc4f5ab	0.024042925
31	0xbd194c62	-0.03742636
32	0xbde9b12e	-0.114107475
33	0xbde5c3f4	-0.11219016
34	0xbd8cc4bc	-0.068734616
35	0xbca0efde	-0.019645628
36	0xbdbbfc70	-0.09179008
37	0xbe015601	-0.12630464
38	0x3d735723	0.059409272
39	0xbdae0047	-0.08496147
40	0xbdd41bbc	-0.103568524
41	0xbd1b36b6	-0.037893973
42	0xbd1cfd3a	-0.038327433
43	0x3d0ee436	0.034885608
44	0xbd46dbb4	-0.04854937
45	0xbd495227	-0.049150612
46	0xbd95c791	-0.07313455
47	0xbda3f31c	-0.08005354
48	0x3c6bdcc7	0.014395899
49	0x3d88a29a	0.06671639
50	0x3c389e77	0.01126825
51	0xbd8b7339	-0.06809086
52	0xbe1fe2ae	-0.15613815
53	0xbded5e42	-0.11590244
54	0xbba825eb	-0.0051314733
55	0xbad1e483	-0.0016013536
56	0xbd09265b	-0.033483844
57	0xba263521	-0.0006340314
58	0xbc7f70e5	-0.015590881
59	0xbe42b58c	-0.19014567
60	0xbd6127b1	-0.054969493
61	0xbca8d7f9	-0.020610796
62	0x3c1b1aa4	0.009466801
63	0xbdc335dd	-0.09531758

model.4.2.weight f4 [64]
0	0x3f863c36	1.0487125
1	0x3f84e809	1.0383312
2	0x3f7783cb	0.96685475
3	0x3f77041a	0.96490633
4	0x3f7e32c2	0.992962
5	0x3f81b3bc	1.0132976
6	0x3f7277cd	0.9471405
7	0x3f76ee07	0.9645695
8	0x3f81ec75	1.0150286
9	0x3f809a27	1.0047044
10	0x3f7ba082	0.9829179
11	0x3f7fae3a	0.99875224
12	0x3f764c3a	0.9621006
13	0x3f7f96d1	0.998395
14	0x3f643c11	0.89154154
15	0x3f8904e0	1.0704613
16	0x3f822911	1.0168782
17	0x3f81a4a8	1.0128374
18	0x3f7ca756	0.98692834
19	0x3f8203a7	1.0157365
20	0x3f7caa24	0.98697114
21	0x3f7d4a9b	0.98941964
22	0x3f732b31	0.9498778
23	0x3f7343c3	0.9502527
24	0x3f825050	1.018076
25	0x3f74e6d1	0.956647
26	0x3f80551b	1.0025972
27	0x3f702565	0.9380706
28	0x3f774c78	0.9660106
29	0x3f7318b9	0.949596
30	0x3f7cba0e	0.98721397
31	0x3f7ea10f	0.99464506
32	0x3f6a1d45	0.9145091
33	0x3f7bd0f5	0.9836572
34	0x3f87718f	1.058153
35	0x3f7c0085	0.9843829
36	0x3f7d2475	0.98883754
37	0x3f733e3f	0.95016855
38	0x3f8307f6	1.0236804
39	0x3f7db5a0	0.9910526
40	0x3f74a4ad	0.95563775
41	0x3f831dc8	1.0243464
42	0x3f729fd9	0.9477516
43	0x3f7b1c8e	0.98090446
44	0x3f815e8b	1.0106977
45	0x3f844ebb	1.0336527
46	0x3f752633	0.9576141
47	0x3f78e819	0.9722915
48	0x3f7d3594	0.9890988
49	0x3f8187ba	1.0119545
50	0x3f834021	1.0253946
51	0x3f7e9178	0.9944072
52	0x3f7e13f4	0.99249196
53	0x3f7eee40	0.9958229
54	0x3f7d7133	0.99000853
55	0x3f7b6d0c	0.9821327
56	0x3f74bbb2	0.955989
57	0x3f827631	1.0192319
58	0x3f6da16e	0.9282445
59	0x3f81dd87	1.014573
60	0x3f7d5d23	0.9897024
61	0x3f81464c	1.0099578
62	0x3f812b29	1.0091296
63	0x3f727e58	0.94724035

model.4.2.bias f4 [64]
0	0x3dfdc683	0.12391379
1	0xbcd63f48	-0.026153222
2	0x3d4a0661	0.04932249
3	0x3d876766	0.066115186
4	0x3ddd8a7c	0.108174294
5	0x3dd07b09	0.10179717
6	0x3e2b22f9	0.1671256
7	0x3e061330	0.13093257
8	0xbcc93070	-0.02455923
9	0x3e72ce31	0.23711468
10	0x3e294c6b	0.16533057
11	0xbc397a0e	-0.011320604
12	0x3db1056c	0.08643612
13	0xbdc85633	-0.09782066
14	0x3cd95f37	0.02653466
15	0x3e06539a	0.13117829
16	0x3d13c871	0.036079828
17	0x3de79fbc	0.11309764
18	0x3d96d473	0.0736474
19	0x3cc85854	0.02445618
20	0xbc74989a	-0.014928961
21	0xbc164936	-0.009172728
22	0x3dc0340e	0.09384929
23	0x3e33c611	0.17556025
24	0xbd1badbe	-0.03800749
25	0xbe0a0cc8	-0.13481438
26	0xbdbc22f5	-0.09186355
27	0x3d9f11e2	0.07767083
28	0x3e2c5735	0.16830142
29	0x3db002a0	0.08594251
30	0x3bccefae	0.006254158
31	0x3d40f36c	0.047107145
32	0x3e336a1a	0.17520943
33	0x3b980fb8	0.0046405457
34	0x3e158555	0.14601643
35	0xbda18c0f	-0.07888042
36	0x3db24c1a	0.087059215
37	0x3d3274d4	0.043568447
38	0x3e310a1a	0.1728901
39	0xbcf5306e	-0.02993032
40	0x3ddc8ca5	0.10769013
41	0xbd58e832	-0.052955814
42	0x3e0de6c6	0.13857564
43	0xbdb87a63	-0.090077184
44	0xbd6357f1	-0.05550379
45	0xbe41af51	-0.18914534
46	0xbd936eee	-0.071988925
47	0xbe19cd3e	-0.150197
48	0x3cc48a9f	0.023991881
49	0x3d234230	0.039858043
50	0x3c2e6f4d	0.010646653
51	0xbd577c57	-0.052608814
52	0x3bd67647	0.0065448615
53	0xbd57fdd6	-0.05273231
54	0xbdc866b9	-0.09785218
55	0x3cf2abab	0.029622873
56	0x3d5571f2	0.05211062
57	0xbd3efd78	-0.046628445
58	0xbd6c9439	-0.057758544
59	0x3c3a0d9b	0.011355783
60	0x3dc766c0	0.09736395
61	0xbd941da1	-0.07232214
62	0x3db0b05b	0.08627387
63	0x3ea99e78	0.33128715

model.4.2.running_mean f4 [64]
0	0x3cf4e480	0.029894114
1	0x3e4104e8	0.18849528
2	0x3e7caf9e	0.24676368
3	0x3edfb4da	0.43692666
4	0x3e2b9799	0.16757049
5	0x3ec75f14	0.38939726
6	0x3e418993	0.18900137
7	0x3e44255a	0.19154873
8	0x3d9a0031	0.07519568
9	0x3e075582	0.13216212
10	0x3e707045	0.23480327
11	0x3e813c3a	0.25241262
12	0x3ed96933	0.42463073
13	0x3e60d4e9	0.21956219
14	0x3e8a3eef	0.2700114
15	0x3de4fd9e	0.11181186
16	0x3e923f4e	0.28563923
17	0x3e8a5a9e	0.2702226
18	0x3e3a6127	0.18201123
19	0x3e11525c	0.14191574
20	0x3e7c4c56	0.24638495
21	0x3e6c3715	0.23067887
22	0x3eda5b67	0.4264786
23	0x3e808a19	0.2510536
24	0x3de68810	0.112564206
25	0x3d7fb267	0.062425997
26	0x3e4046b7	0.18776976
27	0x3e46ae35	0.19402392
28	0x3e17dbca	0.14829937
29	0x3ec9f03b	0.39441094
30	0x3ea03788	0.31292367
31	0x3e0adc59	0.13560618
32	0x3ec2bd6e	0.38035148
33	0x3da84ce2	0.08217789
34	0x3e3fdf66	0.18737563
35	0x3e310ea0	0.17290735
36	0x3e837f77	0.25683185
37	0x3dbf09e8	0.09328061
38	0x3ea1c9e0	0.3159933
39	0x3df2cf97	0.11856001
40	0x3e683395	0.22675927
41	0x3e2bc2a0	0.16773462
42	0x3edfae86	0.43687838
43	0x3edc5a12	0.43037468
44	0x3e52364f	0.2052853
45	0x3e4f5022	0.20245412
46	0x3e533828	0.2062689
47	0x3dc838ee	0.097764835
48	0x3e80fd1c	0.25193107
49	0x3e849e96	0.2590224
50	0x3e8a36cf	0.2699494
51	0x3e08c657	0.1335691
52	0x3d7e7e0a	0.06213192
53	0x3dac5bd3	0.084159516
54	0x3e4f13c0	0.20222378
55	0x3e79dd9b	0.24400942
56	0x3edd5e8b	0.43236193
57	0x3e5da795	0.21645959
58	0x3e8feb8d	0.28109398
59	0x3d2cdbce	0.04220181
60	0x3e6bdf06	0.23034295
61	0x3e095ba9	0.13413872
62	0x3de096d9	0.10966272
63	0x3e44debd	0.19225593
