Generator.pth (torch, 213306 bytes, 105 tensors)

conv1.weight f4 [16, 1, 9, 9]
0.036216132 -0.08583116 -0.02790738 0.06819075 0.10690659 0.031991623 -0.0665485 -0.0970906
-0.07934653 0.017354043 0.054964356 0.0014778381 0.099339806 -0.026806494 -0.028292147 0.07217071
-0.04132859 -0.019688465 0.0818327 -0.078040816 -0.04346964 -0.049768776 0.08141972 0.026570426
0.0059088026 0.012937895 0.040219218 -0.062000357 -0.039264876 -0.08752979 -0.11237909 0.054839868
-0.019462693 0.0066105486 0.04551838 0.08811326 -0.103213295 0.111037195 -0.109858274 -0.0061605447
-0.009220322 0.089306995 0.06877462 0.01689886 0.07492399 -0.07232952 0.10635396 0.06512052
-0.12854424 -0.044403274 -0.086568244 -0.03152807 0.030552238 -0.10161352 0.04433864 0.05213195
0.07003965 -0.09932137 0.052610643 -0.04404957 -0.0006729542 0.0021430615 0.057792556 -0.09772959
0.032776505 0.11611586 -0.10397209 -0.032101635 -0.02494642 -0.021842333 0.04899432 -0.034393568
0.053234298 0.07277602 0.017482122 -0.0010627401 -0.063872464 0.043606732 0.11485838 -0.08376358
-0.0022407342 -0.058909092 -0.08926971 0.008701264 -0.04819853 -0.079183556 0.06671485 -0.06625277
-0.06457184 -0.08121039 -0.09073888 -0.11072263 -0.014662609 -0.1367579 -0.04376724 0.040012687
0.058307916 0.06762747 0.053126723 0.07847208 -0.13044728 -0.08386372 -0.018184572 -0.096762404
-0.08045361 -0.09637207 -0.12446221 0.06780233 -0.008497557 -0.029188031 0.021135148 0.038549155
-0.09070424 0.02925303 0.010949803 0.103847 0.045917023 -0.027721977 -0.023552114 0.07903365
-0.070857055 -0.038116984 0.027350267 -0.005797075 -0.081245266 0.02802339 0.0450703 -0.0362838
-0.029483117 0.008671905 -0.09081828 -0.0107808225 -0.058517255 -0.04139938 -0.10803139 -0.08311484
0.0941995 -0.022258423 -0.0779231 -0.04819999 -0.13099891 0.035474483 0.053262815 0.06580836
-0.022592254 -0.14606105 -0.1025276 -0.14343095 -0.129888 -0.116413355 -0.037689507 0.06168013
-0.15162292 -0.05737265 0.039211288 0.015191985 -0.015546632 -0.062096037 -0.049285233 0.006020945
-0.015877286 0.015336043 -0.10776933 0.10013755 -0.10582795 0.01074015 0.060653627 0.053710807
-0.057220723 0.021771358 -0.044811144 -0.07571784 -0.0672993 -0.07281455 0.11448673 -0.09261253
0.0345282 0.021751283 -0.0073518953 -0.067333534 0.0750504 0.07572662 -0.09659106 0.07895105
-0.105423756 0.083188154 0.07895579 -0.038432345 0.075263254 -0.01833897 0.019388292 -0.10174873
-0.08033326 0.022012427 0.08961597 0.12763117 0.06608432 -0.013306916 0.105847314 0.101422004
-0.0737676 0.06295132 -0.09288973 -0.12682347 -0.04209789 -0.108494006 -0.0026892317 -0.05322426
-0.05433412 0.072530374 -0.045194037 0.052272975 -0.08931812 0.10775625 0.020686239 0.118154846
-0.05638859 -0.102681726 0.0009962481 0.010602218 0.05706002 0.10825573 0.10397981 0.031855747
0.09396006 -0.0095858695 -0.017217968 0.026386166 -0.022877214 -0.05233956 -0.07939302 0.0877752
0.02347266 -0.059535522 -0.04594772 0.078635365 0.113341935 0.053688686 0.006644384 -0.055431727
-0.03035761 0.092416115 0.017891847 -0.071552254 0.004342927 0.100615345 -0.041853625 0.009351492
-0.0876582 0.08341829 -0.057716276 -0.11061666 -0.09849836 -0.08215063 -0.002100534 0.09256089
00000000: 5e57 143d 3fc8 afbd 059e e4bc 98a7 8b3d
00000010: d8f1 da3d a609 033d 944a 88bd 70d7 c6bd
00000020: 6f80 a2bd 112a 8e3c 4e22 613d 05b4 c13a
00000030: ab72 cb3d 4b99 dbbc efc4 e7bc 3dce 933d
00000040: 2b48 29bd b449 a1bc e797 a73d ddd3 9fbd
00000050: 390d 32bd 58da 4bbd 62bf a63d 39aa d93c
00000060: a19e c13b 77f9 533c e8bc 243d 16f4 7dbd
00000070: 35d4 20bd d242 b3bd 0227 e6bd c59f 603d
00000080: 3a70 9fbc 4d9d d83b 7b71 3a3d ba74 b43d
00000090: 7e61 d3bd 7867 e33d 60fd e0bd 65de c9bb
000000a0: d510 17bc 96e6 b63d b5d9 8c3d 7a6f 8a3c
000000b0: c071 993d 8021 94bd 1bd0 d93d e85d 853d
000000c0: 1aa1 03be 35e0 35bd b14a b1bd 9423 01bd
000000d0: b048 fa3c c01a d0bd 6f9c 353d 5088 553d
000000e0: f370 8f3d 0169 cbbd 427e 573d 526d 34bd
000000f0: 3169 30ba 9b72 0c3b e3b7 6c3d 7426 c8bd
00000100: a840 063d 27ce ed3d 52ef d4bd 017d 03bd
00000110: 6f5c ccbc b1ee b2bc 45ae 483d 45e0 0cbd
00000120: 350c 5a3d 980b 953d ab36 8f3c a44b 8bba
00000130: 91cf 82bd f99c 323d df3a eb3d 3d8c abbd
00000140: 48d9 12bb a94a 71bd 0ad3 b6bd bf8f 0e3c
00000150: d26b 45bd fd2a a2bd cca1 883d 88af 87bd
00000160: 3e3e 84bd a251 a6bd 4ed5 b9bd 8cc2 e2bd
00000170: 713b 70bc 430a 0cbe 4745 33bd 58e4 233d
00000180: 48d4 6e3d 4580 8a3d 689b 593d f8b5 a03d
00000190: f993 05be bec0 abbd d0f7 94bc 5e2b c6bd
000001a0: ddc4 a4bd b85e c5bd 0be6 febd f3db 8a3d
000001b0: 5639 0bbc bd1b efbc 9e23 ad3c b8e5 1d3d
000001c0: 25c3 b9bd 0da4 ef3c cd66 333c bcad d43d
000001d0: 7d13 3c3d 3319 e3bc 5df0 c0bc 65dc a13d
000001e0: 811d 91bd 8e20 1cbd ab0d e03c 64f5 bdbb
000001f0: eb63 a6bd 4f91 e53c a39b 383d 529e 14bd
00000200: 9486 f1bc 9b14 0e3c effe b9bd 0ca2 30bc
00000210: caaf 6fbd 6592 29bd 903f ddbd 1d38 aabd
00000220: abeb c03d 4c57 b6bc 2596 9fbd 5a6d 45bd
00000230: 9424 06be b14d 113d 1c2a 5a3d 89c6 863d
00000240: 6413 b9bc 0791 15be fef9 d1bd 90df 12be
00000250: 5c01 05be 206a eebd 5060 1abd 4ea4 7c3d
00000260: 0a43 1bbe 95ff 6abd 049c 203d cee7 783c
00000270: 4db7 7ebc 6a58 7ebd 50df 49bd 594b c53b
00000280: 1511 82bc 0744 7b3c 2bb6 dcbd ea14 cd3d
00000290: 53bc d8bd 74f7 2f3c f06f 783d ddff 5b3d
000002a0: 4760 6abd d959 b23c e48b 37bd f411 9bbd
000002b0: 37d4 89bd cb1f 95bd 0578 ea3d a3ab bdbd
000002c0: 716d 0d3d bf2f b23c 2be8 f0bb 2ae6 89bd
000002d0: 06b4 993d 8f16 9b3d 89d1 c5bd 17b1 a13d
000002e0: 69e8 d7bd 8d5e aa3d 93b3 a13d 3c6b 1dbd
000002f0: 9f23 9a3d 9c3b 96bc 32d4 9e3c a361 d0bd
00000300: c485 a4bd 6853 b43c 9488 b73d bfb1 023e
00000310: 3757 873d 4005 5abc 7ac6 d83d 57b6 cf3d
00000320: 7813 97bd 9fec 803d f93c bebd 03de 01be
00000330: d66e 2cbd 1b32 debd d23d 30bb af01 5abd
00000340: 748d 5ebd ce8a 943d 621d 39bd 301c 563d
00000350: 6bec b6bd 4faf dc3d 3076 a93c 2bfb f13d
00000360: b9f7 66bd cc4a d2bd 8a94 823a edb4 2d3c
00000370: c4b7 693d 2eb5 dd3d 5ef3 d43d 2c7b 023d
00000380: 226e c03d 0d0e 1dbc b20c 8dbc cd27 d83c
00000390: ff68 bbbc 0262 56bd cf98 a2bd 7cc3 b33d
000003a0: bc49 c03c 85db 73bd ad33 3cbd 940b a13d
000003b0: d11f e83d abe8 5b3d 22b9 d93b 610c 63bd
000003c0: 86b0 f8bc a944 bd3d ec91 923c fd89 92bd
000003d0: 1d4f 8e3b 6b0f ce3d b56e 2bbd 0037 193c
000003e0: 2486 b3bd 35d7 aa3d e767 6cbd fd8a e2bd
000003f0: 82b9 c9bd 973e a8bd 1da9 09bb 9090 bd3d

conv1.bias f4 [16]
0.053190302 0.024413666 0.09864855 -0.08651498 -0.09185098 0.043222528 0.015974026 -0.0064647477
0.013558857 -0.111583225 0.021322794 0.0023455506 -0.0310148 0.06591481 0.01725943 -0.009891935
00000000: 13de 593d 2bff c73c 4008 ca3d c42e b1bd
00000010: 5e1c bcbd 1b0a 313d f6db 823c 3cd6 d3bb
00000020: f825 5e3c bf85 e4bd 24ad ae3c cfb7 193b
00000030: c012 febc 58fe 863d a663 8d3c c811 22bc

res_blocks.0.conv1.weight f4 [16, 16, 3, 3]
0.06391944 -0.1093443 -0.027356295 -0.052270707 -0.08322928 0.0144931525 -0.094779916 -0.00053887954
0.025543759 -0.03053328 -0.05250063 0.03980717 0.002001897 -0.09801674 0.015633568 -0.0035743234
-0.013453383 0.050299622 0.019743765 -0.031239418 -0.027994098 -0.038249888 -0.05177277 -0.05277478
-0.057172056 -0.012542269 0.061150156 -0.04989649 -0.03953007 0.025444608 0.07745631 -0.07252725
-0.07399615 0.03731387 -0.07414481 -0.043334864 -0.054988444 -0.009324382 -0.023968887 -0.04561766
-0.07331447 0.08209624 0.06635458 -0.042072073 0.00853949 0.041030202 -0.03156857 -0.017296758
-0.09282373 -0.105030894 -0.07747473 0.0041852356 0.03240537 -0.120369814 -0.0049175224 -0.06899504
-0.015930848 -0.07845741 0.035993487 0.06790442 -0.075605676 -0.09054692 -0.015894772 0.06684146
0.028127242 0.06770651 -0.0007203801 0.10410646 0.04486764 -0.0006927411 0.08969724 -0.03231528
-0.0348948 0.07574895 0.073402904 -0.006341272 0.040617775 -0.0075800424 -0.010737826 0.014749795
0.056617532 0.053039547 -0.04671329 0.018529505 0.034016047 -0.004221597 0.0038736544 -0.03626345
-0.067021266 -0.01267735 -0.08041038 0.07397133 0.058385488 -0.011156814 0.052094582 -0.033033427
-0.009152321 0.068852164 0.034477476 0.00073522195 0.0506994 -0.048329674 0.077218235 0.079651676
-0.06403124 0.032322314 0.015071588 0.018759396 -0.032997042 0.04722651 -0.02722026 0.07163911
0.02746756 0.010622859 -0.07602935 0.0118228495 -0.061480045 0.07221162 0.07729627 -0.06825865
0.01254782 0.072676584 0.036566 -0.041631 -0.045968305 -0.032540694 0.040821325 -0.035357654
-0.05746657 -0.014444801 0.06505825 0.039181564 -0.014476934 0.053933367 -0.05191547 -0.052328493
-0.05669522 0.0829311 0.007913933 0.021329423 0.090007015 -0.022971664 0.01662613 0.0187318
-0.008679152 0.075242616 -0.031310227 -0.104204126 0.04049823 -0.048412792 -0.041703336 -0.012830362
-0.00083468144 -0.019197326 -0.04648184 0.07358717 0.051229462 0.030354567 0.117150836 0.087063186
0.07102346 0.1318472 0.015501746 0.065419234 -0.024386002 0.069527216 -0.0826138 -0.074101456
-0.09203452 -0.065381035 -0.010556587 0.069203965 0.058582716 0.022852581 0.017876636 0.004761368
0.014353852 -0.013075879 -0.0150987115 0.08313705 0.044748798 -0.04511494 0.012837162 0.07584707
-0.032479253 -0.05772923 -0.07162387 -0.06157181 -0.005728844 -0.009366244 -0.027099898 0.05160448
0.03916542 0.026313003 0.053181484 0.105088316 0.04086709 -0.06384877 0.012422339 -0.052416243
0.017407324 -0.04446003 0.039169855 0.011767151 0.014149687 0.10301512 0.025671337 -0.05607283
-0.06709905 -0.02556063 0.004466958 0.046223313 0.04364887 -0.0344562 -0.06412318 0.009111054
-0.033219445 -0.04152714 0.038320396 -0.037585337 -0.028460007 -0.065781616 -0.018771332 0.018771384
0.052610487 -0.07326729 0.015005809 0.047823343 0.061953917 -0.040319804 0.07695293 0.057446007
0.06441809 0.07656799 -0.06663632 -0.045676053 0.06533735 -0.020946227 -0.13469283 0.02430543
-0.022473626 0.041657515 -0.021477414 -0.021711053 -0.01960202 0.047020815 -0.01960133 -0.014869658
0.06045566 0.08549849 0.084951244 0.07216932 0.07134107 -0.025780162 -0.00046536326 -0.04750997
00000000: 32e8 823d e8ef dfbd 4f1a e0bc cf19 56bd
00000010: 1d74 aabd b074 6d3c f91b c2bd 9843 0dba
00000020: 2541 d13c ee20 fabc e70a 57bd d80c 233d
00000030: 4232 033b 00bd c8bd f811 803c 323f 6abb
00000040: 946b 5cbc fa06 4e3d adbd a13c cfe9 ffbc
00000050: e153 e5bc eaab 1cbd af0f 54bd 5e2a 58bd
00000060: 3f2d 6abd 177e 4dbc 9678 7a3d 4360 4cbd
00000070: 48ea 21bd 3671 d03c 6aa1 9e3d 2b89 94bd
00000080: 4b8b 97bd 6ed6 183d 3cd9 97bd e67f 31bd
00000090: 903b 61bd 4bc5 18bc 665a c4bc 95d9 3abd
000000a0: e625 96bd 1322 a83d e9e4 873d c453 2cbd
000000b0: 38e9 0b3c 490f 283d 0b4e 01bd eeb1 8dbc
000000c0: 5e1a bebd 701a d7bd 12ab 9ebd 4d24 893b
000000d0: 7ebb 043d 7384 f6bd 2b23 a1bb 464d 8dbd
000000e0: 6981 82bc 47ae a0bd e86d 133d 7911 8b3d
000000f0: 26d7 9abd aa70 b9bd c135 82bc 2de4 883d
00000100: 1a6b e63c b6a9 8a3d e4d7 3cba c535 d53d
00000110: 21c7 373d 1199 35ba 30b3 b73d 075d 04bd
00000120: daed 0ebd 4422 9b3d 4354 963d 72ca cfbb
00000130: d35e 263d 0162 f8bb b5ed 2fbc 20a9 713c
00000140: c9e7 673d ff3f 593d 6f56 3fbd 30cb 973c
00000150: 6954 0b3d 5355 8abb 23dd 7d3b fc88 14bd
00000160: 7242 89bd a9b4 4fbc 33ae a4bd 487e 973d
00000170: 9f25 6f3d 12cb 36bc 2161 553d 0f4e 07bd
00000180: 9ef3 15bc 5d02 8d3d 4138 0d3d e9bb 403a
00000190: 2daa 4f3d 56f5 45bd 9824 9e3d 6b20 a33d
000001a0: d022 83bd 6764 043d d2ee 763c 4ead 993c
000001b0: e827 07bd 9670 413d 06fd debc 87b7 923d
000001c0: a603 e13c 800b 2e3c 47b5 9bbd a0b4 413c
000001d0: 80d2 7bbd b0e3 933d 824d 9e3d 31cb 8bbd
000001e0: 5f95 4d3c 76d7 943d 3bc6 153d 4485 2abd
000001f0: 4349 3cbd 6449 05bd 4334 273d 30d3 10bd
00000200: 1162 6bbd e3a9 6cbc 433d 853d d97c 203d
00000210: aa30 6dbc 3ce9 5c3d 51a5 54bd 6756 56bd
00000220: 3f39 68bd c8d7 a93d 71a9 013c 0bbb ae3c
00000230: 9955 b83d 122f bcbc 8633 883c 6f73 993c
00000240: 0033 0ebc cd18 9a3d 273f 00bd f968 d5bd
00000250: 79e1 253d 7e4c 46bd 1ed1 2abd 7036 52bc
00000260: 86ce 5aba b643 9dbc be63 3ebd dfb4 963d
00000270: fcd5 513d 24aa f83c c7ec ef3d 2f4e b23d
00000280: bf74 913d f402 073e 09fb 7d3c 85fa 853d
00000290: 27c5 c7bc 4964 8e3d 6d31 a9bd 81c2 97bd
000002a0: 987c bcbd 7ee6 85bd 89f5 2cbc cfba 8d3d
000002b0: 6ef4 6f3d 5635 bb3c 0672 923c 4005 9c3b
000002c0: 6b2c 6b3c 363c 56bc 9660 77bc c243 aa3d
000002d0: 844a 373d 71ca 38bd f652 523c b555 9b3d
000002e0: f708 05bd 7c75 6cbd 89af 92bd b932 7cbd
000002f0: 07b9 bbbb e074 19bc 9b00 debc 385f 533d
00000300: eb6b 203d 5e8e d73c d4d4 593d 8b38 d73d
00000310: 4064 273d 25c3 82bd 1187 4b3c 6ab2 56bd
00000320: ce99 8e3c b81b 36bd 9270 203d 02cb 403c
00000330: 17d4 673c 97f9 d23d b24c d23c a0ac 65bd
00000340: 3a6b 89bd 8764 d1bc 8f5f 923b a854 3d3d
00000350: 28c9 323d f221 0dbd 0453 83bd 8846 153c
00000360: 1d11 08bd 5d18 2abd d9f5 1c3d 15f3 19bd
00000370: f624 e9bc 83b8 86bd 56c6 99bc 72c6 993c
00000380: 187e 573d 290d 96bd edda 753c 69e2 433d
00000390: 64c3 7d3d 6126 25bd 7f99 9d3d 814c 6b3d
000003a0: a2ed 833d aecf 9c3d 9f78 88bd d016 3bbd
000003b0: 97cf 853d 6c97 abbc ebec 09be 2e1c c73c
000003c0: 9c1a b8bc 12a1 2a3d 67f1 afbc 61db b1bc
000003d0: 6a94 a0bc e698 403d f892 a0bc de9f 73bc
000003e0: 5ba0 773d d519 af3d ebfa ad3d 82cd 933d
000003f0: 441b 923d eb30 d3bc 00fc f3b9 d099 42bd

res_blocks.0.conv1.bias f4 [16]
0.027085997 0.05791563 0.0462083 0.026447035 0.005239023 0.06029221 -0.00438518 -0.015358697
-0.06295384 0.036728114 -0.016069766 -0.0867193 0.0034881923 0.035752673 -0.06413755 0.053867046
00000000: 74e3 dd3c f138 6d3d ea44 3d3d 74a7 d83c
00000010: 1cac ab3b f7f4 763d 8eb1 8fbb 0ba3 7bbc
00000020: f1ed 80bd 3870 163d bea4 83bc e399 b1bd
00000030: 289a 643b 6571 123d 8c5a 83bd b1a3 5c3d

res_blocks.0.bn1.weight f4 [16]
0.9956795 0.9817503 1.0103079 1.0007309 0.992566 0.99720186 0.99889165 1.0082947
0.96813893 0.9778872 0.9816394 1.0212498 1.0558056 1.0043381 1.0073285 0.9947272
00000000: dae4 7e3f fd53 7b3f c551 813f f317 803f
00000010: ce18 7e3f 9f48 7f3f 5db7 7f3f cd0f 813f
00000020: f4d7 773f d156 7a3f b84c 7b3f 50b8 823f
00000030: a324 873f 278e 803f 24f0 803f 71a6 7e3f

res_blocks.0.bn1.bias f4 [16]
-0.011413888 -0.039171953 -0.0023445282 0.034576546 -0.02526872 0.024043363 0.013542266 -0.005354147
0.02611147 -0.0134043805 -0.029825833 0.013915483 0.015720002 -0.027540777 -0.06445297 0.0018367376
00000000: 5101 3bbc c572 20bd a8a6 19bb 23a0 0d3d
00000010: 5900 cfbc 96f6 c43c 61e0 5d3c d771 afbb
00000020: b9e7 d53c 0c9e 5bbc 4e55 f4bc c4fd 633c
00000030: 3cc7 803c 329d e1bc ebff 83bd b0be f03a

res_blocks.0.bn1.running_mean f4 [16]
0.027248038 0.011594527 0.05821573 0.029201077 0.028316304 0.040069435 -0.0052466085 0.0056889034
-0.03223707 0.09386285 -0.023017675 -0.10104393 0.00768212 0.08080001 -0.051899143 0.068929225
00000000: 4737 df3c f9f6 3d3c 9e73 6e3d 1937 ef3c
00000010: 98f7 e73c d91f 243d beeb abbb fb69 ba3b
00000020: 050b 04bd 2a3b c03d 908f bcbc 1ff0 cebd
00000030: 4bba fb3b 7a7a a53d 3294 54bd c42a 8d3d

res_blocks.0.bn1.running_var f4 [16]
0.00473555 0.0006321003 0.00034087495 0.00083483534 0.00047858132 0.0016681011 0.00054591836 9.289365e-05
0.00033075412 0.0012115348 0.0002264693 0.0021672032 0.0002016739 0.0016571077 0.0003102551 0.0029463815
00000000: ac2c 9b3b 88b3 253a 76b7 b239 dad8 5a3a
00000010: 19ea fa39 2fa4 da3a f61b 0f3a e6cf c238
00000020: 1169 ad39 5dcc 9e3a 6478 6d39 a307 0e3b
00000030: 6d78 5339 4f33 d93a bca9 a239 1418 413b

res_blocks.0.conv2.weight f4 [16, 16, 3, 3]
0.026352692 -0.05436445 -0.038396977 0.05507608 -0.05603847 0.055987418 0.010369312 -0.025472974
0.0030106427 -0.023863561 0.007626782 0.026213123 -0.021808375 0.08339077 0.07166179 0.040594507
0.087840214 0.032826446 -0.043518685 -0.057631295 0.09196603 -0.022109587 0.09247861 0.081407286
0.028822884 0.050828382 0.0030631456 0.06738048 0.059242003 -0.060099732 -0.06263652 -0.06979443
0.080791086 -0.049814094 0.016430257 -0.03375916 0.027598172 0.06015645 -0.003666003 0.016782166
0.08396615 -0.029507443 -0.067350194 0.05695319 0.039520934 -6.571776e-05 -0.024154106 0.04834737
-0.072902285 0.06613298 0.019625185 -0.019780647 -0.024435233 -0.03454284 -0.030920934 0.023796055
-0.044580795 0.037598066 0.020735664 0.043124717 -0.026500095 -0.04417873 0.052737307 0.012926071
0.020213138 -0.024819784 0.0069023324 0.017908247 0.11603695 -0.034462053 -0.07584172 0.0893823
-0.019197725 0.008710908 0.06658071 -0.07753413 -0.07956246 0.04348135 0.060777776 -0.015992593
-0.038462233 0.05019772 -0.08104329 -0.017615648 0.082336396 0.018404193 -0.034940585 -0.0149207385
0.043648895 0.06799114 -0.0630783 0.061851714 0.009704762 0.043961216 0.016812168 -0.00011014517
-0.029855397 0.017101891 -0.0102458075 0.0070791147 -0.060186177 0.0022568714 0.030178145 -0.08101887
0.048440948 -0.08811616 -0.047572915 -0.07122803 -0.02938949 0.027947897 -0.052314337 0.014954421
0.013349581 -0.023614008 0.09421516 0.012569959 0.035445247 -0.015731135 0.045962293 -0.057109017
0.0337305 0.006435598 -0.033818725 0.057008788 0.027068287 0.0021696596 0.053399432 -0.047304127
0.07483983 -0.037410885 0.07761586 0.02841932 -0.046538614 0.09982495 0.086980686 0.0863318
-0.03639786 0.029289095 0.01790929 -0.04973581 0.049966168 -0.07217351 0.047373965 -0.066667326
0.07849557 -0.053423524 -0.057202745 0.00048603376 0.042685572 -0.08664136 -0.08040461 0.035807673
0.004324934 -0.031409886 0.0922471 -0.02116685 0.09960993 0.011226814 -0.0387038 0.021630151
-0.05564735 0.018595224 0.04139908 -0.045274258 0.06736975 -0.06063766 -0.025503384 -0.010595059
0.050668564 -0.07587648 0.041257385 0.077596694 -0.060519658 -0.055169094 -0.03604828 -0.01024857
-0.057705916 -0.059132423 0.073761635 0.078543454 -0.0040709884 0.051078018 0.05566027 0.0023179485
-0.080649965 -0.07340882 0.026198298 0.07282231 0.031644296 0.03604835 -0.045097396 -0.059353646
0.06831792 -0.031801585 0.041050903 -0.07693471 0.03430086 -0.08055765 -0.045429714 0.038271647
-0.04447854 -0.004723067 0.030811038 -0.070817195 0.021484347 0.026915854 0.036568563 0.01978835
0.008760429 -0.055001773 -0.106999435 0.05657585 0.008856296 0.029023116 0.068124466 -0.04417887
0.01601557 -0.010544508 0.05140219 -0.024669861 -0.044672728 -0.03222976 -0.018824406 -0.028610723
0.09764904 -0.051983107 -0.047253143 0.028336685 0.03395652 0.015614257 -0.06811777 -0.061921548
0.015078385 0.08479262 0.024218138 -0.06305411 0.066223525 -0.03377204 0.04941778 0.022235367
-0.015961582 0.019878255 0.01604019 -0.073073216 -0.020053627 0.012170992 0.03274293 0.028365308
0.013583543 0.03185275 0.052693587 0.059181035 -0.040662233 0.08504905 0.0036693215 -0.054662608
00000000: 9ae1 d73c 42ad 5ebd 2646 1dbd 7597 613d
00000010: 9888 65bd 1053 653d 0ce4 293c b3ac d0bc
00000020: 344e 453b 847d c3bc 16ea f93b e7bc d63c
00000030: 7aa7 b2bc c8c8 aa3d 6bc3 923d 6d46 263d
00000040: 92e5 b33d 0675 063d a640 32bd cb0e 6cbd
00000050: b058 bc3d 2a1f b5bc 6d65 bd3d ddb8 a63d
00000060: f81d ec3c 6c31 503d 0ebf 483b c7fe 893d
00000070: bea7 723d 232b 76bd 9347 80bd 62f0 8ebd
00000080: cc75 a53d dd09 4cbd bf98 863c 0c47 0abd
00000090: 9015 e23c 9c66 763d 5341 70bb c17a 893c
000000a0: 72f6 ab3d 98b9 f1bc e6ee 89bd c047 693d
000000b0: b4e0 213d f4d1 89b8 d5de c5bc e407 463d
000000c0: cb4d 95bd ba70 873d ffc4 a03c 060b a2bc
000000d0: 662c c8bc cb7c 0dbd e64d fdbc f2ef c23c
000000e0: 5a9a 36bd 6e00 1a3d d7dd a93c 8ba3 303d
000000f0: ba16 d9bc c2f4 34bd 1303 583d dfc7 533c
00000100: 0696 a53c dc52 cbbc f62c e23b 51b4 923c
00000110: c8a4 ed3d 1528 0dbd e752 9bbd 110e b73d
00000120: 8c44 9dbc 32b8 0e3c 785b 883d 37ca 9ebd
00000130: a5f1 a2bd 8019 323d 1ef2 783d e602 83bc
00000140: 938a 1dbd 209c 4d3d 06fa a5bd b14e 90bc
00000150: fc9f a83d 64c4 963c dc1d 0fbd 1d76 74bc
00000160: 2fc9 323d f03e 8b3d 322f 81bd 3958 7d3d
00000170: b900 1f3c ad10 343d acb9 893c bdfd e6b8
00000180: 4e93 f4bc 4419 8c3c 08de 27bc ebf7 e73b
00000190: c885 76bd 05e8 133b 2838 f73c 39ed a5bd
000001a0: 046a 463d 3f76 b4bd d1db 42bd 00e0 91bd
000001b0: 3ac2 f0bc fdf2 e43c 8f47 56bd 6303 753c
000001c0: 33b8 5a3c 2a72 c1bc e1f3 c03d 3bf2 4d3c
000001d0: 092f 113d 95de 80bc f542 3c3d 25eb 69bd
000001e0: fe28 0a3d b5e1 d23b 8185 0abd 0c82 693d
000001f0: 50be dd3c d930 0e3b 5db9 5a3d f9c1 41bd
00000200: a045 993d 283c 19bd 10f5 9e3d a2cf e83c
00000210: 469f 3ebd 0671 cc3d ee22 b23d bace b03d
00000220: ec15 15bd afef ef3c 81b6 923c c7b7 4bbd
00000230: 53a9 4c3d b5cf 93bd 340b 423d e188 88bd
00000240: 49c2 a03d a0d2 5abd 6d4d 6abd 59d2 fe39
00000250: 11d7 2e3d 0671 b1bd 2cab a4bd 11ab 123d
00000260: 2db8 8d3b a7a7 00bd 0cec bc3d 1a66 adbc
00000270: 4a00 cc3d acf0 373c e087 1ebd b731 b13c
00000280: 7aee 63bd 0355 983c 1592 293d 8071 39bd
00000290: 27f9 893d 325f 78bd 79ec d0bc e696 2dbc
000002a0: d789 4f3d 2165 9bbd 81fd 283d 04eb 9e3d
000002b0: 76e3 77bd fdf8 61bd 5ca7 13bd 9ee9 27bc
000002c0: 0a5d 6cbd d734 72bd 5710 973d 64db a03d
000002d0: ed65 85bb 2f37 513d 06fc 633d b9e8 173b
000002e0: cf2b a5bd 5d57 96bd d09d d63c dd23 953d
000002f0: 739d 013d 6fa7 133d 0cb8 38bd cf1c 73bd
00000300: 44ea 8b3d 6142 02bd fe24 283d f28f 9dbd
00000310: 0f7f 0c3d 69fb a4bd 8214 3abd bbc2 1c3d
00000320: 212f 36bd f5c3 9abb 6e67 fc3c 9b08 91bd
00000330: f1ff af3c a37e dc3c ebc8 153d 2e1b a23c
00000340: e787 0f3c 8a49 61bd 8522 dbbd 14bc 673d
00000350: ff19 113c e3c1 ed3c d784 8b3d e7f4 34bd
00000360: 1633 833c dfc2 2cbc 1a8b 523d 7318 cabc
00000370: c0fa 36bd 5a03 04bd a435 9abc 0961 eabc
00000380: 38fc c73d 3dec 54bd 838c 41bd 5622 e83c
00000390: fe15 0b3d f1d2 7f3c 5481 8bbd 73a1 7dbd
000003a0: 550b 773c c1a7 ad3d 1e65 c63c 8322 81bd
000003b0: 33a0 873d 8d54 0abd 4c6a 4a3d f226 b63c
000003c0: ddc1 82bc b9d7 a23c b766 833c 69a7 95bd
000003d0: 8147 a4bc d768 473c 731d 063d 5d5e e83c
000003e0: 828d 5e3c 0778 023d 3bd5 573d d067 723d
000003f0: 718d 26bd 322e ae3d 0079 703b e6e5 5fbd

res_blocks.0.conv2.bias f4 [16]
-0.027396956 -0.024214434 0.019769415 0.08879555 0.065833904 0.083322376 -0.027224336 -0.08350718
-0.04227819 -0.055689324 0.012769839 0.05488564 0.0010758262 0.013388907 -0.018147986 0.03439805
00000000: 956f e0bc 595d c6bc 78f3 a13c 71da b53d
00000010: edd3 863d eca4 aa3d 9205 dfbc d005 abbd
00000020: e52b 2dbd 7d1a 64bd 9638 513c c4cf 603d
00000030: bd02 8d3a 255d 5b3c 16ab 94bc f8e4 0c3d

res_blocks.0.bn2.weight f4 [16]
1.0038736 1.0066314 0.9939919 0.9945463 0.9799482 0.98800087 0.98527443 0.9983053
0.9985153 1.0022345 0.9835871 0.9941202 0.9933799 0.99122894 0.98909324 0.9763504
00000000: ee7e 803f 4cd9 803f 4176 7e3f 969a 7e3f
00000010: e3dd 7a3f a0ed 7c3f f23a 7c3f f090 7f3f
00000020: b39e 7f3f 3849 803f 5dcc 7b3f a97e 7e3f
00000030: 254e 7e3f 2ec1 7d3f 3735 7d3f 1af2 793f

res_blocks.0.bn2.bias f4 [16]
-0.024495125 0.022683306 0.018520558 0.046720456 -0.017358365 0.004240348 -0.0004760158 0.02792632
-0.039430723 -0.007132489 -0.012663031 0.032535482 -0.002503656 -0.0077134757 -0.054527853 0.022210533
00000000: 00aa c8bc 57d2 b93c 6db8 973c f35d 3f3d
00000010: 2133 8ebc 9ef2 8a3b c291 f9b9 bdc5 e43c
00000020: 1c82 21bd a7b7 e9bb 9a78 4fbc ed43 053d
00000030: 6114 24bb 53c1 fcbb 9958 5fbd ddf2 b53c

res_blocks.0.bn2.running_mean f4 [16]
0.23428538 0.011304495 0.2618417 -0.05920769 0.15733598 0.005508972 -0.04509208 0.10021183
-0.36148643 0.11085655 0.032991655 0.10370137 -0.0059570563 -0.0041735754 0.083546415 0.3597823
00000000: 82e8 6f3e 7d36 393c 1e10 863e c383 72bd
00000010: af1c 213e 9b84 b43b 79b2 38bd dc3b cd3d
00000020: c014 b9be c208 e33d 4222 073d 6261 d43d
00000030: 6933 c3bb 7dc2 88bb 621a ab3d 6335 b83e

res_blocks.0.bn2.running_var f4 [16]
0.33384117 0.14331189 0.5782393 0.3786617 0.07042632 0.17238939 0.07611462 0.29429656
0.84667397 0.41176167 0.08264495 0.12013713 0.07988757 0.11517066 0.058656026 0.54385483
00000000: 3bed aa3e 5ac0 123e 7e07 143f f2df c13e
00000010: ad3b 903d d886 303e fbe1 9b3d 0aae 963e
00000020: a0bf 583f 6dd2 d23e c141 a93d 750a f63d
00000030: 189c a33d 98de eb3d 4d41 703d 123a 0b3f

res_blocks.1.conv1.weight f4 [16, 16, 3, 3]
-0.03196599 -0.06055624 0.025593871 -0.07109133 0.07659897 -0.08178614 0.074393295 0.084876426
-0.044945 -0.08895929 -0.0039423285 -0.04966539 -0.08908745 -0.013696369 -0.077361904 0.06726574
-0.049883258 0.012651501 -0.011513937 -0.06524257 -0.07535241 -0.040615734 -0.06986787 0.03930667
0.07575796 0.033378903 0.064446345 0.06800937 -0.0744805 -0.06219953 -0.021716522 -0.0564936
-0.050591785 -0.0672912 -0.085291885 0.021414185 0.060164858 0.06097255 -0.06087167 -0.07939867
0.06726327 0.021201873 -0.026697163 -0.00082464877 -0.023551082 -0.060777083 -0.050916374 0.006873134
-0.079194166 -0.08318926 -0.02032078 0.04639676 -0.031691857 -0.009329316 -0.011175589 -0.08190604
-0.0678107 0.0058477037 -0.038348116 -0.05475389 0.012234184 -0.013617082 -0.0068434994 0.06783715
-0.059115946 -0.03686888 0.059858203 0.030396493 -0.038799815 -0.010330783 0.0034477224 -0.029625542
0.028820977 -0.032814395 0.08114746 0.042336192 0.004050773 0.075511456 0.0428024 -0.011008873
0.031214759 0.052563645 -0.043325555 -0.06360409 -0.020536983 -0.005075981 0.071538754 0.018066306
0.030579353 -0.026958575 -0.07354313 0.058421496 -0.07603177 -0.006309684 0.0023350138 0.082714744
-0.07870906 0.036056668 -0.046097834 0.032214645 -0.041629042 -0.0567125 0.040699046 0.007447587
0.0579943 -0.04466297 -0.031456348 0.015041315 0.0746781 -0.037736185 0.056451414 -0.07270362
-0.022645753 -0.022394944 -0.0035730891 0.034135915 0.062556095 0.038029287 0.030971445 0.011546477
0.08340607 -0.06755224 -0.054003958 -0.034568723 -0.04402162 -0.044972528 -0.0020567453 0.034590997
0.05041868 0.018455952 -0.039615344 -0.0741632 -0.015554375 -0.012766254 -0.019801887 0.052426096
0.11655355 0.09773832 -0.060462847 0.048530843 -0.006809118 0.047500134 -0.0389854 -0.005512455
0.037958916 0.01733106 -0.02485179 -0.039722145 -0.07138518 0.068982236 -0.010148759 -0.036333255
0.03736364 0.056426413 0.08208748 -0.011738692 0.0051900246 0.006251581 -0.03702168 -0.050361387
-0.059436053 0.035950713 -0.025083251 -0.035423554 0.07663144 0.06540954 0.034858976 0.042266432
0.029434625 -0.074113175 0.059515774 -0.045775414 -0.053800404 -0.058459144 -0.056291506 0.035361975
-0.039622597 -0.04031516 0.024066212 0.02815509 0.06150261 0.06072317 0.07435224 -0.010671792
0.05881068 -0.0327411 0.04402334 0.08257601 0.045818117 0.022844313 -0.050570097 0.04541519
-0.007935482 0.05319894 0.03676693 0.06533653 0.047685478 0.029591484 0.00037349106 0.06978959
0.018148797 -0.034565512 -0.044225298 -0.017176153 -0.07207914 -0.031173779 0.030582635 0.041525636
-0.036152497 -0.058311123 0.066185735 -0.038030725 -0.058032114 0.024149325 -0.011128487 -0.033735
0.051090214 0.026542807 0.036980182 0.011861914 0.017055545 0.07064319 -0.038733277 -0.07603291
-0.04646032 0.021132534 -0.057917725 -0.027525928 -0.015068341 -0.025033675 0.0374008 -0.0069298176
0.06556857 -0.06595828 0.0029022396 0.04724796 -0.029174058 -0.029592473 -0.05540858 -0.050539948
0.024488203 -0.004141692 0.02955541 0.05493353 0.0071501234 0.011153312 0.05220337 0.04028437
0.07001994 0.087752484 -0.02700475 -0.019593727 0.0028602164 -0.060194477 0.013600783 -0.053707425
00000000: c5ee 02bd d209 78bd 3daa d13c 5598 91bd
00000010: ecdf 9c3d 7e7f a7bd 835b 983d b1d3 ad3d
00000020: 4018 38bd 4a30 b6bd a62e 81bb f06d 4bbd
00000030: 7b73 b6bd bc66 60bc eb6f 9ebd 9fc2 893d
00000040: 6352 4cbd 3e48 4f3c f4a4 3cbc e69d 85bd
00000050: 5d52 9abd af5c 26bd e316 8fbd 0800 213d
00000060: fd26 9b3d 51b8 083d 72fc 833d 7f48 8b3d
00000070: 3b89 98bd efc4 7ebd d9e6 b1bc d565 67bd
00000080: 5539 4fbd f8cf 89bd 83ad aebd cd6c af3c
00000090: 6d6f 763d 5abe 793d 9254 79bd c59b a2bd
000000a0: 53c1 893d 8daf ad3c 02b4 dabc 3e2d 58ba
000000b0: 33ee c0bc 64f1 78bd b08d 50bd 0738 e13b
000000c0: 8d30 a2bd 215f aabd c477 a6bc 870a 3e3d
000000d0: 52cf 01bd fdd9 18bc d119 37bc 5bbe a7bd
000000e0: 56e0 8abd 189e bf3b ea12 1dbd 9d45 60bd
000000f0: e371 483c 2e1a 5fbc 6f3f e0bb 34ee 8a3d
00000100: 9023 72bd d303 17bd e02d 753d 1102 f93c
00000110: 8eec 1ebd 7242 29bc 2ff3 613b 44b1 f2bc
00000120: f819 ec3c 6368 06bd a430 a63d b768 2d3d
00000130: 59bc 843b c0a5 9a3d 9251 2f3d 8f5e 34bc
00000140: 18b6 ff3c fa4c 573d 2376 31bd dc42 82bd
00000150: 2d3d a8bc 6a54 a6bb e982 923d caff 933c
00000160: 8d81 fa3c 3bd8 dcbc c89d 96bd 614b 6f3d
00000170: 8bb6 9bbd 77c1 cebb 0807 193b 5966 a93d
00000180: 3732 a1bd 28b0 133d 15d1 3cbd 81f3 033d
00000190: 3783 2abd 5e4b 68bd 0bb4 263d e30a f43b
000001a0: 6e8b 6d3d 85f0 36bd 5fd8 00bd d96f 763c
000001b0: d5f0 983d 4291 1abd 9939 673d a3e5 94bd
000001c0: 9683 b9bc 9a75 b7bc 7d2a 6abb 1ad2 0b3d
000001d0: 691d 803d 99c4 1b3d d4b7 fd3c 6f2d 3d3c
000001e0: cdd0 aa3d d458 8abd 4133 5dbd ef97 0dbd
000001f0: 0450 34bd 1d35 38bd 76ca 06bb 4aaf 0d3d
00000200: d183 4e3d f030 973c b343 22bd e0e2 97bd
00000210: c7d7 7ebc 8d29 51bc 9137 a2bc bfbc 563d
00000220: a1b3 ee3d 072b c83d e4a7 77bd 47c8 463d
00000230: 061f dfbb 808f 423d 28af 1fbd d3a1 b4bb
00000240: cf7a 1b3d def9 8d3c fb95 cbbc b0b3 22bd
00000250: 6532 92bd 8f46 8d3d fb46 26bc 2ed2 14bd
00000260: 9e0a 193d 621f 673d 7b1d a83d a553 40bc
00000270: 1511 aa3b 10da cc3b 0ca4 17bd be47 4ebd
00000280: 3873 73bd 0e41 133d 647b cdbc 4a18 11bd
00000290: f2f0 9c3d 70f5 853d 49c8 0e3d 911f 2d3d
000002a0: e220 f13c a6c8 97bd d0c6 733d 007f 3bbd
000002b0: d05d 5cbd db72 6fbd ec91 66bd b8d7 103d
000002c0: 4e4b 22bd 8221 25bd 8126 c53c 81a5 e63c
000002d0: 29ea 7b3d dcb8 783d fd45 983d bdd8 2ebc
000002e0: 78e3 703d 881b 06bd d151 343d 9c1d a93d
000002f0: c7ab 3b3d ff23 bb3c 9722 4fbd 4705 3a3d
00000300: d303 02bc 22e7 593d ec98 163d 29cf 853d
00000310: d951 433d d769 f23c 1fd1 c339 d8ed 8e3d
00000320: c9ac 943c 9194 0dbd 9625 35bd 01b5 8cbc
00000330: 3a9e 93bd 2760 ffbc 6f88 fa3c c916 2a3d
00000340: a414 14bd a5d7 6ebd 638c 873d 1bc6 1bbd
00000350: 15b3 6dbd ced4 c53c 4254 36bc b62d 0abd
00000360: f943 513d 4d70 d93c 8878 173d 7958 423c
00000370: 12b8 8b3c 60ad 903d c9a6 1ebd 24b7 9bbd
00000380: 2d4d 3ebd 231e ad3c 233b 6dbd 0e7e e1bc
00000390: 34e1 76bc 6c13 cdbc 9531 193d 8613 e3bb
000003a0: d048 863d 2215 87bd 8033 3e3b 1487 413d
000003b0: 6ffe eebc ea6b f2bc 1bf4 62bd fa02 4fbd
000003c0: 7c9b c83c 08b7 87bb 301e f23c fb01 613d
000003d0: 954b ea3b 62bc 363c 33d3 553d 3901 253d
000003e0: 9d66 8f3d 93b7 b33d 1139 ddbc 0683 a0bc
000003f0: 7872 3b3b 7c8e 76bd d2d5 5e3c 51fc 5bbd

res_blocks.1.conv1.bias f4 [16]
0.06491658 -0.029038383 -0.02795917 -0.0052118353 0.015130169 -0.04307321 0.013208392 0.07752498
-0.0028618618 0.038613506 0.03986615 -0.022847231 0.02923557 0.041553915 -0.009402709 0.025642168
00000000: fcf2 843d e7e1 edbc a10a e5bc 0bc8 aabb
00000010: 87e4 773c 896d 30bd 0368 583c 6bc5 9e3d
00000020: 138e 3bbb 3229 1e3d b04a 233d 1e2a bbbc
00000030: 6f7f ef3c 7034 2a3d d20d 1abc 860f d23c

res_blocks.1.bn1.weight f4 [16]
1.0010768 0.99625325 0.99574864 0.999452 1.0035275 1.0051025 1.0057912 0.9821211
0.99197763 1.016311 0.9968999 1.0010521 1.0074598 0.9955084 0.99765044 1.0018303
00000000: 4923 803f 740a 7f3f 62e9 7e3f 16dc 7f3f
00000010: 9773 803f 33a7 803f c4bd 803f 4a6c 7b3f
00000020: 3ff2 7d3f 7b16 823f d534 7f3f 7a22 803f
00000030: 71f4 803f a3d9 7e3f 0566 7f3f fa3b 803f

res_blocks.1.bn1.bias f4 [16]
0.024376096 -0.06893446 -0.03250166 -0.011280771 0.0024044265 -0.007228431 -0.01831186 -0.027894568
-0.006213945 -0.011751739 0.07147195 -0.00016093164 -0.02385249 0.00859816 0.019634292 -0.011694125
00000000: 61b0 c73c 832d 8dbd 7620 05bd fcd2 38bc
00000010: 9593 1d3b 79dc ecbb c102 96bc 2683 e4bc
00000020: 599e cbbb 5e8a 40bc e35f 923d c2bf 28b9
00000030: 4c66 c3bc 4cdf 0c3c 18d8 a03c b798 3fbc

res_blocks.1.bn1.running_mean f4 [16]
0.041529924 -0.03508896 -0.015268786 0.057760358 -0.012790191 0.026438002 0.021300921 0.07193346
-0.016558267 -0.00019908008 0.05007163 -0.071984954 0.036693174 0.022865025 -0.010742925 0.017419294
00000000: 481b 2a3d 71b9 0fbd ee29 7abc 2096 6c3d
00000010: f38d 51bc 8294 d83c 457f ae3c da51 933d
00000020: 34a5 87bc 27c0 50b9 e917 4d3d d96c 93bd
00000030: 954b 163d 6f4f bb3c 1803 30bc e8b2 8e3c

res_blocks.1.bn1.running_var f4 [16]
0.70046836 0.43958452 0.62497705 0.33248025 0.17152914 1.3426802 0.96837205 2.4190948
0.26283726 0.42376888 0.024945723 0.5023852 0.13810179 0.35518503 0.43457147 0.22109133
00000000: e551 333f 3911 e13e 7ffe 1f3f da3a aa3e
00000010: 56a5 2f3e f2dc ab3f 3be7 773f 73d2 1a40
00000020: 9b92 863e 3cf8 d83e f95a cc3c 519c 003f
00000030: 8e6a 0d3e d0da b53e 2780 de3e c465 623e

res_blocks.1.conv2.weight f4 [16, 16, 3, 3]
-0.026121996 -0.0012136867 -0.0049067405 0.04548432 -0.03343849 0.042336274 -0.08350552 0.0585826
-0.09124967 0.0028537258 0.082621865 -0.020463655 0.014728298 0.03435367 -0.015563626 -0.06885077
0.023397887 0.040464863 0.081545524 -0.059205916 -0.031692643 0.0801325 0.08263655 0.069117285
-0.051921654 0.08067584 -0.06699303 -0.044071652 0.054247927 0.0041979398 0.021352699 -0.067324705
0.01663358 -0.0048761466 0.08152909 0.06221174 0.0507705 0.022959579 -0.037350077 -0.026026204
0.029285384 0.0024489744 -0.0019831087 0.096247174 -0.025586642 -0.04090503 0.050823584 -0.071690544
-0.07306047 0.035414133 -0.011631211 -0.02728509 0.035059303 -0.064113006 -0.0701655 -0.0813554
0.047786348 -0.061797358 -0.054592855 0.07808728 -0.07555035 -0.049631126 -0.03069304 -0.05806586
-0.059174776 0.06946556 0.023865847 0.0021622332 0.06636766 0.021321986 0.04109855 -0.022806704
-0.0065133194 -0.017305253 -0.072544895 -0.0021511829 0.05842569 -0.08693848 0.021723626 0.042500537
0.0015264297 -0.00021075728 0.08304062 -0.07292408 -0.016385231 -0.04698652 0.00634021 -0.04044359
0.020148939 0.007665382 0.009329134 0.054898456 0.033280574 0.022943748 0.06458263 0.09650085
0.09009874 -0.034641948 -0.01846785 0.005819944 0.044638216 -0.05229842 -0.07111323 0.038092487
-0.0031218815 -0.003278375 -0.01719972 0.08467832 -0.060750693 -0.04081633 0.030840369 0.024007773
-0.03819592 0.053078566 0.008273668 -0.05469369 0.022027472 0.050301902 -0.050458673 -0.038069196
-0.049105942 0.016572412 0.0033445398 -0.09474684 -0.08479963 -0.044515084 -0.07342937 -0.059672028
-0.019507885 -0.012922477 -0.084997885 -0.00741736 -0.03480146 0.0022233506 -0.091887906 -0.062346376
-0.04118088 0.06608357 -0.0153361065 0.009981914 -0.029999932 0.07449158 -0.07255644 0.040838473
0.032692023 0.004203785 0.048176043 -0.07189331 0.07168335 -0.013871985 -0.06043487 0.069653325
-0.0015867861 0.03655845 0.021704651 0.04290198 -0.04324687 -0.08139717 0.02402742 -0.08706351
-0.0435349 0.005480919 0.00044155217 0.013447537 0.030333394 -0.0628316 0.00042347886 -0.042722095
-0.039986733 -0.08106374 0.012013331 -0.033060048 -0.053089075 -0.02417533 -0.0031658488 0.058654826
0.080530435 -0.008797674 -0.053403016 0.09226542 0.097891495 0.048332732 -0.047812123 0.046185747
0.04377339 0.019434797 -0.010318055 -0.042767424 0.003373449 -0.07314046 0.05581755 -0.0011413585
-0.039467197 0.0845426 -0.0077340505 -0.011900223 -0.059733514 0.057851106 -0.069636226 -0.06109945
-0.062836744 -0.01640072 0.027973596 0.032381367 0.053598005 -0.024106823 0.055173118 -0.05125375
-0.015219748 0.067676604 -0.068918884 0.055826973 -0.03192705 0.071722545 -0.042121615 -0.01623151
0.004138414 0.056795847 0.033614274 -0.04040519 0.03757024 0.0058586895 -0.021319997 0.014279604
-0.025052084 -0.019183222 -0.003585071 -0.08063396 -0.075777255 0.017985964 -0.026326312 -0.034158356
-0.08268959 -0.07363962 -0.097700916 0.02666482 0.029538589 -0.07417557 -0.02995628 -0.027057994
0.04150909 0.08604769 -0.040073708 -0.028088082 0.04158993 -0.018947478 -0.022415042 0.0034727792
0.05190638 -0.066152155 -0.05712008 0.06304247 0.07480706 0.02800163 0.03915774 -0.05412556
00000000: ccfd d5bc 9114 9fba b9c8 a0bb c44d 3a3d
00000010: ccf6 08bd cd68 2d3d f104 abbd 4ff4 6f3d
00000020: 1be1 babd 9305 3b3b a735 a93d 65a3 a7bc
00000030: f64e 713c 6fb6 0c3d 94fe 7ebc a201 8dbd
00000040: edac bf3c 7cbe 253d 5701 a73d e781 72bd
00000050: 25d0 01bd 821c a43d 5a3d a93d 5d8d 8d3d
00000060: cdab 54bd 6039 a53d a433 89bd 7a84 34bd
00000070: 1333 5e3d df8e 893b dbeb ae3c 89e1 89bd
00000080: 2543 883c 15c8 9fbb b9f8 a63d bdd1 7e3d
00000090: baf4 4f3d ba15 bc3c 65fc 18bd e834 d5bc
000000a0: e7e7 ef3c f97e 203b 0bf7 01bb 3d1d c53d
000000b0: 149b d1bc 088c 27bd 642c 503d 7ed2 92bd
000000c0: baa0 95bd 690e 113d d690 3ebc fb84 dfbc
000000d0: 589a 0f3d ae4d 83bd eeb2 8fbd a99d a6bd
000000e0: 9ebb 433d 3a1f 7dbd c29c 5fbd 39ec 9f3d
000000f0: 24ba 9abd 024a 4bbd f86f fbbc 78d6 6dbd
00000100: 4061 72bd f643 8e3d 4f82 c33c 41b4 0d3b
00000110: c5eb 873d 72ab ae3c f456 283d 20d5 babc
00000120: af6d d5bb bfc3 8dbc 6b92 94bd dcfa 0cbb
00000130: c74f 6f3d cd0c b2bd bff5 b13c 0b15 2e3d
00000140: 7b12 c83a bafe 5cb9 3311 aa3d 3859 95bd
00000150: 523a 86bc f074 40bd 89c1 cf3b 2ea8 25bd
00000160: 630f a53c e32d fb3b 39d9 183c 34dd 603d
00000170: 3651 083d 87f4 bb3c e643 843d 3da2 c53d
00000180: b085 b83d b7e4 0dbd e349 97bc 3bb5 be3b
00000190: 90d6 363d de36 56bd d0a3 91bd de06 1c3d
000001a0: 7b98 4cbb 01da 56bb 6de6 8cbc d46b ad3d
000001b0: b8d5 78bd 062f 27bd f1a4 fc3c f3ab c43c
000001c0: 5373 1cbd e968 593d 478e 073c 7e06 60bd
000001d0: f572 b43c 5e09 4e3d c1ad 4ebd 72ee 1bbd
000001e0: 5023 49bd dec2 873c 1130 5b3b a20a c2bd
000001f0: 6eab adbd 7355 36bd 2362 96bd a86a 74bd
00000200: 00cf 9fbc ccb8 53bc 5f13 aebd 530d f3bb
00000210: fa8b 0ebd a2b5 113b ba2f bcbd ea5e 7fbd
00000220: 48ad 28bd d356 873d 4b44 7bbc 2f8b 233c
00000230: 6bc2 f5bc 0b8f 983d 7998 94bd 3e46 273d
00000240: 12e8 053d e8bf 893b 3e54 453d cd3c 93bd
00000250: b8ce 923d 5247 63bc 8e8a 77bd 67a6 8e3d
00000260: b5fb cfba 50be 153d f4cd b13c fdb9 2f3d
00000270: a123 31bd 8fb3 a6bd 27d5 c43c 5b4e b2bd
00000280: a751 32bd 4899 b33b 2180 e739 0f53 5c3c
00000290: bd7d f83c dbad 80bd 5f06 de39 5dfd 2ebd
000002a0: 21c9 23bd bf04 a6bd 90d3 443c f969 07bd
000002b0: ee73 59bd 570b c6bc 217a 4fbb 0b40 703d
000002c0: 24ed a43d 1f24 10bc 1fbd 5abd a7f5 bc3d
000002d0: 567b c83d 8bf8 453d a5d6 43bd 442d 3d3d
000002e0: ba4b 333d b935 9f3c 0f0d 29bc e52c 2fbd
000002f0: 1515 5d3b aaca 95bd f1a0 643d a399 95ba
00000300: 5ba8 21bd ac24 ad3d eb6d fdbb 27f9 42bc
00000310: 21ab 74bd 48f5 6c3d 709d 8ebd 6b43 7abd
00000320: 8db0 80bd ce5a 86bc e228 e53c 53a2 043d
00000330: 9589 5b3d ac7b c5bc 35fd 613d 74ef 51bd
00000340: 405c 79bc 089a 8a3d 5825 8dbd d3aa 643d
00000350: f0c5 02bd 45e3 923d b787 2cbd f2f7 84bc
00000360: 889b 873b c3a2 683d 1faf 093d ea7f 25bd
00000370: 41e3 193d 40fa bf3b 46a7 aebc 00f5 693c
00000380: 073a cdbc 2226 9dbc 83f3 6abb 6b23 a5bd
00000390: 1b31 9bbd 4d57 933c 47aa d7bc a2e9 0bbd
000003a0: 2959 a9bd 5ed0 96bd 6b17 c8bd 2e70 da3c
000003b0: e9fa f13c 5ce9 97bd df66 f5bc baa8 ddbc
000003c0: 7005 2a3d c539 b03d 5424 24bd fa18 e6bc
000003d0: 345a 2a3d be37 9bbc c09f b7bc 9197 633b
000003e0: c99b 543d c87a 87bd bff6 69bd 691c 813d
000003f0: 7234 993d ad63 e53c de63 203d c3b2 5dbd

res_blocks.1.conv2.bias f4 [16]
0.013804686 -0.04642512 0.06123618 0.0007644701 0.07071805 0.023824144 0.07897271 -0.072704144
0.053099938 0.006316168 0.041940425 -0.025953898 0.03207053 -0.03620005 0.026730837 0.02899185
00000000: 0d2d 623c 4428 3ebd cad2 7a3d b866 483a
00000010: a0d4 903d da2a c33c 72bc a13d e9e5 94bd
00000020: 527f 593d dbf7 ce3b b9c9 2b3d 459d d4bc
00000030: 635c 033d 8146 14bd a1fa da3c 5180 ed3c

res_blocks.1.bn2.weight f4 [16]
0.9971477 0.998268 0.99336123 0.9965915 0.9823128 0.99584275 0.9814666 1.0262841
0.9956033 0.996204 0.9801545 0.9862382 0.9901131 0.9968183 1.0029795 0.9887047
00000000: 1245 7f3f 7e8e 7f3f ec4c 7e3f 9f20 7f3f
00000010: da78 7b3f 8def 7e3f 6541 7b3f 475d 833f
00000020: dcdf 7e3f 3a07 7f3f 68eb 7a3f 1b7a 7c3f
00000030: 0d78 7d3f 7c2f 7f3f a261 803f c01b 7d3f

res_blocks.1.bn2.bias f4 [16]
-0.0049895355 -0.015210356 0.017967738 -0.00461537 -0.029189829 0.03725486 -0.021177962 0.027677793
-0.03316815 0.0011275371 -0.008074816 0.032281477 0.008975615 0.005795505 -0.036465053 -0.0070518106
00000000: 427f a3bb db34 79bc 1431 933c 883c 97bb
00000010: 821f efbc 8d98 183d 687d adbc 8abc e23c
00000020: 53db 07bd dec9 933a 3c4c 04bc 9539 043d
00000030: 750e 133c 38e8 bd3b 615c 15bd e012 e7bb

res_blocks.1.bn2.running_mean f4 [16]
-0.15356897 -0.2507668 -0.26182845 0.32113272 0.31500536 0.21483114 0.15950981 -0.11469033
0.42548105 -0.14716674 0.23218139 0.038911387 0.18445006 -0.15279603 -0.013346753 0.046004
00000000: 2f41 1dbe 8264 80be 610e 86be 826b a43e
00000010: 6248 a13e b2fc 5b3e 8a56 233e c4e2 eabd
00000020: a7d8 d93e e1b2 16be f5c0 6d3e 8c61 1f3d
00000030: 7ae0 3c3e 9076 1cbe 57ac 5abc b16e 3c3d

res_blocks.1.bn2.running_var f4 [16]
0.93526065 0.6386693 0.89336234 0.8622243 0.6389492 0.62989116 0.28406844 0.21996735
0.83677894 0.71658343 0.3964766 0.6291829 0.15666263 0.1246335 0.13235846 0.33256516
00000000: 3e6d 6f3f d57f 233f 65b3 643f bbba 5c3f
00000010: 2d92 233f 8c40 213f 6b71 913e 1f3f 613e
00000020: 2537 563f 0372 373f fbfe ca3e 2112 213f
00000030: 2b6c 203e d93f ff3d fa88 073e fb45 aa3e

res_blocks.2.conv1.weight f4 [16, 16, 3, 3]
0.032394834 -0.097087964 -0.063001804 0.0025549768 -0.10602732 -0.0021778124 -0.06655135 0.044132993
0.031230198 -0.0900553 0.069832616 0.004641139 -0.08762976 0.026433896 0.022493128 0.060793564
-0.019977733 0.023024399 -0.05686247 -0.03153571 -0.011224021 -0.056283705 -0.013248871 0.100450866
0.050940923 0.064029016 -0.059417285 0.05480646 -0.099676594 -0.103370026 -0.021835838 0.052892473
0.039760754 -0.005724155 -0.030253937 0.022469036 -0.06498793 0.031040069 0.039696988 0.07346936
-0.046003442 -0.06175878 -0.05827853 0.031747248 0.04527828 -0.046183914 0.044094387 -0.040031377
0.020609578 0.05029277 0.003952053 -0.056316942 0.0612884 -0.047933698 -0.0047752024 -0.05817224
0.080760926 -0.068071626 -0.022530776 -0.01618489 -0.06910747 0.053218618 -0.06641741 -0.05265399
0.07139714 -0.04549034 -0.013697954 0.07865181 -0.030412417 -0.053877544 0.021978276 -0.03983491
-0.11823632 -0.027743239 -0.0980025 -0.005007078 -0.06273213 0.0153477 -0.021674536 0.043437473
-0.0803591 -0.023732388 -0.03570539 0.029516436 0.06780665 0.004888767 -0.0551823 0.009667897
-0.06557831 0.0095209405 -0.034964193 -0.026509954 0.014660065 0.011471651 0.020017002 0.057525482
0.077469975 -0.060020052 0.020825928 0.07157122 -0.049834285 -0.0060892827 -0.050112374 -0.07377252
0.031573266 0.031875458 0.022123853 -0.07909551 -0.018911388 -0.098652855 -0.05037241 -0.014001288
0.040033843 -0.0071701095 -0.01098428 0.043696705 -0.06353779 0.011405626 -0.05956578 -0.00899548
0.030600594 -0.05006199 0.040819313 0.06779119 -0.07169193 -0.014005379 -0.012340732 -0.039254192
0.07247624 -0.037916593 -0.013323484 0.02161609 0.03411689 -0.006015585 -0.02365092 -0.07889084
-0.055541687 0.042336 0.061214928 0.033080805 0.049651045 -0.06947361 -0.0763497 0.029784756
-0.017433766 -0.06459253 -0.07186143 -0.0034922846 -0.071263425 0.047087073 0.024319291 -0.00882562
-0.041374996 -0.03703785 -0.06732699 -0.051424906 -0.03273893 0.028750567 -0.08766407 0.06344294
0.00411141 -0.064954214 0.014766789 0.010435226 0.06411055 0.04526745 0.03210129 0.030259306
-0.034262754 -0.051115822 -0.030346995 -0.024979122 -0.10272217 0.008531113 0.03558588 -0.086376734
0.023051763 0.0015408943 0.049978107 0.0125202825 0.00032485166 -0.022291066 -0.038571693 0.10456038
-0.049460284 0.063859224 -0.05441684 0.071808726 0.00048355357 0.00639743 0.07517866 -0.03189317
0.046676904 -0.09842691 0.044909336 0.080737725 -0.035603244 0.092409305 -0.011008845 0.0017187584
-0.03743109 0.01445377 -0.03017714 0.091828845 -0.056473803 -0.052090973 0.038956564 -0.10069431
0.0041626687 0.032837663 -0.074697696 0.00033403773 -0.015403675 -0.0004262156 0.041738138 0.06584274
-0.031006465 -0.052427996 -0.013659159 -0.05028167 0.036133736 -0.05279834 0.07956734 -0.022458706
0.08055295 0.008754744 -0.0017259469 0.04486359 0.06988469 -0.07671418 -0.031222938 -0.058469385
-0.015179709 -0.03239001 -0.026204206 -0.06837805 -0.058093555 0.037788726 0.039745532 -0.058558747
-0.0015463635 0.017976163 -0.015530978 0.0010684695 0.059656914 0.06966075 -0.0552575 -0.0347583
-0.031670112 0.025699133 -0.07962889 0.08048807 -0.07326603 0.014938534 0.042544644 0.00970271
00000000: 72b0 043d 0ed6 c6bd 1707 81bd 6671 273b
00000010: da24 d9bd a1b9 0ebb 134c 88bd ccc4 343d
00000020: 79d6 ff3c ea6e b8bd 6704 8f3d b214 983b
00000030: 3b77 b3bd e68b d83c 8243 b83c ac02 793d
00000040: 58a8 a3bc aa9d bc3c 9fe8 68bd 972b 01bd
00000050: f5e4 37bc be89 66bd cb11 59bc 2fb9 cd3d
00000060: 6ea7 503d a521 833d 8a5f 73bd bd7c 603d
00000070: 3e23 ccbd aab3 d3bd 12e1 b2bc c7a5 583d
00000080: 2cdc 223d b191 bbbb 1bd7 f7bc fc10 b83c
00000090: 6418 85bd be47 fe3c 4f99 223d 1b77 963d
000000a0: 1b6e 3cbd c6f6 7cbd 78b5 6ebd 6709 023d
000000b0: b875 393d 582b 3dbd 519c 343d f1f7 23bd
000000c0: 6bd5 a83c cbff 4d3d 3980 813b 98ac 66bd
000000d0: 8c09 7b3d 2056 44bd 4d79 9cbb 0446 6ebd
000000e0: fc65 a53d 2369 8bbd 7692 b8bc 2d96 84bc
000000f0: 3888 8dbd c4fb 593d da05 88bd b6ab 57bd
00000100: aa38 923d 1454 3abd 626d 60bc 3314 a13d
00000110: 7623 f9bc b3ae 5cbd c90b b43c ee29 23bd
00000120: e225 f2bd ca45 e3bc 89b5 c8bd 6a12 a4bb
00000130: b479 80bd eb74 7b3c cc8e b1bc 7eeb 313d
00000140: 5093 a4bd 6d6a c2bc d13f 12bd 74cc f13c
00000150: 37de 8a3d f331 a03b d606 62bd 1966 1e3c
00000160: ec4d 86bd b8fd 1b3c 9d36 0fbd 672b d9bc
00000170: c530 703c 97f3 3b3c b2fa a33c d79f 6b3d
00000180: 94a8 9e3d 96d7 75bd 239b aa3c ef93 923d
00000190: 091f 4cbd 9b88 c7bb a242 4dbd 0c16 97bd
000001a0: f852 013d d78f 023d 153d b53c d4fc a1bd
000001b0: 0eec 9abc 820a cabd 4d53 4ebd a965 65bc
000001c0: 87fa 233d 3df3 eabb 69f7 33bc 51fb 323d
000001d0: 1a20 82bd aade 3a3c 3ffb 73bd c761 13bc
000001e0: 19ae fa3c cd0d 4dbd 2732 273d 1cd6 8a3d
000001f0: 38d3 92bd d176 65bc c830 4abc 01c9 20bd
00000200: 6c6e 943d 6e4e 1bbd be4a 5abc 3a14 b13c
00000210: 27be 0b3d 621e c5bb 93bf c1bc 8591 a1bd
00000220: ae7f 63bd 8368 2d3d 81bc 7a3d bd7f 073d
00000230: e55e 4b3d 2e48 8ebd 3b5d 9cbd 29ff f33c
00000240: 42d1 8ebc 1749 84bd 162c 93bd d0de 64bb
00000250: 8ff2 91bd 60de 403d 4039 c73c 5599 10bc
00000260: d478 29bd 00b5 17bd bce2 89bd eca2 52bd
00000270: 4219 06bd 4f86 eb3c 3889 b3bd 5fee 813d
00000280: 02b9 863b b706 85bd 67f0 713c 83f8 2a3c
00000290: 644c 833d 5d6a 393d a47c 033d 5de2 f73c
000002a0: 1a57 0cbd d35e 51bd 439a f8bc 04a1 ccbc
000002b0: 0060 d2bd 15c6 0b3c 80c2 113d 49e6 b0bd
000002c0: 0dd7 bc3c d5f7 c93a d8b5 4c3d df21 4d3c
000002d0: da50 aa39 c19b b6bc 5afd 1dbd c123 d63d
000002e0: de96 4abd a0c8 823d 31e4 5ebd 7410 933d
000002f0: 7685 fd39 88a1 d13b 45f7 993d 6aa2 02bd
00000300: 4830 3f3d 0c94 c9bd daf2 373d d259 a53d
00000310: b5d4 11bd 1741 bd3d 715e 34bc f647 e13a
00000320: 5851 19bd 81cf 6c3c 0d36 f7bc c310 bc3d
00000330: 1351 67bd 585d 55bd eb90 1f3d d238 cebd
00000340: ff66 883b c980 063d 1bfb 98bd c921 af39
00000350: b25f 7cbc b175 dfb9 9cf5 2a3d 8fd8 863d
00000360: 4501 febc bdbe 56bd aaca 5fbc 27f4 4dbd
00000370: f800 143d 1243 58bd 34f4 a23d 52fb b7bc
00000380: f2f8 a43d 0f70 0f3c 2b39 e2ba e2c2 373d
00000390: b41f 8f3d 531c 9dbd 3fc7 ffbc 987d 6fbd
000003a0: 50b4 78bc 63ab 04bd 34aa d6bc cb09 8cbd
000003b0: 82f3 6dbd 5ac8 1a3d 36cc 223d 4cdb 6fbd
000003c0: 59af caba bf42 933c a575 7ebc e30b 8c3a
000003d0: cf5a 743d 4caa 8e3d b055 62bd b85e 0ebd
000003e0: 85b8 01bd fd86 d23c 7914 a3bd eed6 a43d
000003f0: 800c 96bd c1c0 743c 4b43 2e3d 1ef8 1e3c

res_blocks.2.conv1.bias f4 [16]
0.03569819 0.05090459 0.029617501 -0.06983123 -0.016226884 0.023792202 -0.010142151 0.031886924
0.07434369 0.07737113 -0.030185021 0.07937547 0.03378998 -0.07605905 0.07665359 -0.00067930174
00000000: 4438 123d 5581 503d 67a0 f23c ad03 8fbd
00000010: 3eee 84bc dde7 c23c 442b 26bc dd9b 023d
00000020: 8141 983d c174 9e3d 9446 f7bc 9b8f a23d
00000030: 5d67 0a3d d9c4 9bbd 8ffc 9c3d 2b13 32ba

res_blocks.2.bn1.weight f4 [16]
1.001705 0.9902519 0.988161 0.9983782 1.0309281 1.0195979 0.9978273 0.9977413
0.97253025 1.016641 0.99351615 0.9959318 0.978455 1.0288008 0.9993163 0.99584424
00000000: df37 803f 2681 7d3f 1ff8 7c3f b795 7f3f
00000010: 74f5 833f 2f82 823f 9c71 7f3f f96b 7f3f
00000020: bef7 783f 4b21 823f 1357 7e3f 63f5 7e3f
00000030: 077c 7a3f bfaf 833f 31d3 7f3f a6ef 7e3f

res_blocks.2.bn1.bias f4 [16]
0.033030666 -0.004484997 -0.012920579 0.025837643 0.03142903 -0.020035096 -0.014535737 -0.023658037
-0.023844652 0.022680305 -0.029888371 0.00021598453 -0.023515683 0.012947459 -0.01607743 0.018091623
00000000: 2a4b 073d e2f6 92bb d6b0 53bc 77a9 d33c
00000010: babb 003d a420 a4bc 4d27 6ebc 80ce c1bc
00000020: dc55 c3bc 0ccc b93c 75d8 f4bc e879 6239
00000030: f6a3 c0bc 9421 543c d1b4 83bc e234 943c

res_blocks.2.bn1.running_mean f4 [16]
0.008218726 0.08638215 0.032530308 -0.10514201 0.026341246 0.071798794 -0.026271021 0.00025276892
0.09052618 0.07519648 -0.053572193 0.0016639136 0.053631723 -0.04908832 0.07135712 -0.021333864
00000000: d6a7 063c 20e9 b03d 803e 053d b254 d7bd
00000010: 99c9 d73c 3f0b 933d 5336 d7bc 1286 8439
00000020: ca65 b93d 9d00 9a3d 846e 5bbd ad17 da3a
00000030: f0ac 5b3d d610 49bd af23 923d 5bc4 aebc

res_blocks.2.bn1.running_var f4 [16]
0.07100794 1.30563 0.42969504 0.64391637 0.14949028 0.76954013 2.579682 0.7442651
1.1127281 0.6796624 1.3909575 0.531514 0.69714916 1.2493765 2.2598534 1.0018986
00000000: 9c6c 913d e21e a73f fd00 dc3e b4d7 243f
00000010: fb13 193e 9500 453f 8319 2540 2888 3e3f
00000020: e06d 8e3f 5bfe 2d3f e50a b23f 4d11 083f
00000030: 5e78 323f 92eb 9f3f 70a1 1040 373e 803f
